BRNN.pth (torch, 53895 bytes, 10 tensors)

rnn.weight_ih_l0 f4 [8, 511]
0	0x3dd096c3	0.101850055
1	0x3fbb15fa	1.4616082
2	0x3f9d5875	1.229262
3	0x3d0de1c3	0.03463913
4	0x404da13c	3.212966
5	0xc0b065e7	-5.5124393
6	0xbf1762a8	-0.5913491
7	0x3dcdd6ce	0.10050736
8	0xbf0e8300	-0.5566864
9	0xc091acac	-4.552328
10	0xbe98c6d2	-0.29839188
11	0xbf1f1d31	-0.6215392
12	0xc01d56d0	-2.4584236
13	0xc004c138	-2.0742931
14	0xbf654e3f	-0.8957252
15	0xbf877d58	-1.0585127
16	0xc028c683	-2.6371162
17	0xc069b148	-3.6514454
18	0xc0cd7057	-6.4199634
19	0xbe9eb605	-0.30998245
20	0xc01e7521	-2.475899
21	0x3f9b81d5	1.2148997
22	0x3eef7a0c	0.46772802
23	0xc06d5574	-3.7083406
24	0x3e9c2a80	0.30501175
25	0x40d51d89	6.6598554
26	0x40a74451	5.2270894
27	0x40bce268	5.9026375
28	0xc06dee81	-3.7176821
29	0x3e419782	0.18905452
30	0x3f09dc1e	0.538515
31	0x406cdcd4	3.7009783
32	0x3f33b1f4	0.7019341
33	0xbf0e2aeb	-0.5553424
34	0xbea96a3f	-0.33088872
35	0x40256b94	2.584691
36	0x3ee60fd3	0.44933948
37	0xbf169556	-0.5882162
38	0x406dd5a7	3.7161653
39	0x3fdc3d6a	1.7206242
40	0xbf948ed4	-1.1606088
41	0xbe3620d1	-0.17785956
42	0x4106a539	8.415338
43	0x4023f76b	2.5619762
44	0xbf17973e	-0.5921515
45	0xc0aaecb0	-5.3413925
46	0x40396b3e	2.8971705
47	0xc098a137	-4.7696795
48	0x40aa98c7	5.3311496
49	0xc082acdf	-4.0836024
50	0x400a19b2	2.1578183
51	0xc011eac6	-2.2799544
52	0x3f7ffcfe	0.9999541
53	0xc00ea0f6	-2.2285743
54	0xc07c8542	-3.9456334
55	0xbfada64c	-1.3566375
56	0x3f4d48db	0.80189294
57	0xbf6b6032	-0.9194366
58	0x3ec77a62	0.38960558
59	0xbfdd431c	-1.7286105
60	0xbf5c2174	-0.85988545
61	0xbfbd1d29	-1.4774524
62	0x40f4f553	7.654947
63	0xc033d0dd	-2.809623
64	0xbf89f8c4	-1.0779042
65	0xc01ceadf	-2.4518354
66	0x3ecfb366	0.40566558
67	0x402bc88d	2.6841156
68	0xbf15f80d	-0.5858162
69	0x40e8c110	7.273567
70	0x3e04a67e	0.12954137
71	0xc0dfd7b1	-6.9950795
72	0xbf9b9639	-1.2155219
73	0x3f974312	1.1817343
74	0x3f9adf42	1.2099383
75	0x3e9e57a6	0.30926245
76	0x3e49be9f	0.19701622
77	0xbd6a2f27	-0.057173874
78	0x3f1a80f3	0.6035301
79	0xbd9befea	-0.07614119
80	0x40186de7	2.381708
81	0x3f4b7eb1	0.7949019
82	0x4045548c	3.0832853
83	0x402fb57a	2.7454515
84	0x3fc61bd4	1.5477242
85	0x40bf8675	5.985163
86	0x3f9bcc31	1.2171689
87	0x3fe609fa	1.7971795
88	0xbff210f6	-1.8911426
89	0xc0074062	-2.1133046
90	0x3f6ece30	0.9328337
91	0x4028dbf0	2.638424
92	0x3f282218	0.6567702
93	0xc05f0042	-3.4843907
94	0x4074ada9	3.8230994
95	0xbf560e92	-0.8361598
96	0xc015ebb1	-2.3425105
97	0xc0805899	-4.010815
98	0xbc41f135	-0.011837293
99	0x3fb57fd0	1.417963
100	0x4053a4bc	3.3069296
101	0x4091f091	4.560616
102	0xc0243f43	-2.5663612
103	0xbef30dec	-0.4747156
104	0xbe1323a8	-0.1436907
105	0x40a5a3e8	5.176258
106	0x3ee33a44	0.4438039
107	0x40e51fca	7.1601305
108	0x3fb15346	1.3853538
109	0x3f5620ee	0.83643997
110	0x40191d3c	2.3924093
111	0xbedbafea	-0.4290765
112	0x4019d625	2.4036953
113	0xc0612c88	-3.518343
114	0xbfa32f7f	-1.274887
115	0xbf39cf6b	-0.7258212
116	0x40fbdf56	7.8710127
117	0x3ed30914	0.41217864
118	0xbf711534	-0.9417298
119	0xc05814d5	-3.3762715
120	0xbf9e3e2d	-1.2362725
121	0x3b364d7b	0.0027817178
122	0xc0343383	-2.815644
123	0x4114d47a	9.301874
124	0x40e78d48	7.2359962
125	0x3fc50dd8	1.539485
126	0x3eedf232	0.46473843
127	0x4049cfa8	3.1532993
128	0x40352212	2.8302045
129	0xbfb26214	-1.3936181
130	0xbf55a7cb	-0.83459157
131	0x3dbf76fb	0.093488656
132	0xbfbe5aa2	-1.4871409
133	0xc0c984b3	-6.2974486
134	0xbf8ec2f4	-1.1153245
135	0x3f5535da	0.83285296
136	0xc1042dbd	-8.261167
137	0x406e07a0	3.7192154
138	0xbf88ce31	-1.0687925
139	0x4143a9f9	12.228997
140	0x3f60c820	0.87805367
141	0xc07a3351	-3.909382
142	0xbcecbb99	-0.028898047
143	0x3f0f30a8	0.5593362
144	0xc0293b4f	-2.644245
145	0x3fe5ad34	1.7943482
146	0xbe905d1f	-0.28196046
147	0x404dbf2a	3.2147927
148	0xc0391b14	-2.8922777
149	0xbf4bc8e6	-0.7960342
150	0x4019519a	2.3956056
151	0x40d18513	6.5474944
152	0xbf5243b8	-0.8213458
153	0xbef05d38	-0.4694612
154	0xbfaa418c	-1.3301253
155	0xc15db211	-13.855973
156	0xbfe4b76d	-1.7868477
157	0xbf90cb90	-1.1312122
158	0x3e522280	0.20520973
159	0x4009dd2a	2.1541238
160	0x3eec7035	0.46179357
161	0x4094daf3	4.651727
162	0xbf92b009	-1.1459972
163	0xc094f47f	-4.6548457
164	0x3fa023fd	1.2510983
165	0x402907be	2.6410975
166	0x3fa0ddb4	1.2567658
167	0xbff356b0	-1.901083
168	0xc082d897	-4.088939
169	0xbf0e63b7	-0.556209
170	0xbf4fe12a	-0.8120295
171	0xbf01416d	-0.50490457
172	0xc067dd1e	-3.622871
173	0x3fa33deb	1.2753271
174	0xc0206f18	-2.5067806
175	0x40e97b6d	7.2963166
176	0x400a9ead	2.1659348
177	0xbfe4f7cd	-1.7888123
178	0x3c4c8484	0.012482766
179	0x3e3df187	0.18549167
180	0xc0959b5a	-4.675214
181	0x3ffd0c22	1.9769328
182	0x40fa6262	7.8245096
183	0x3e8d5153	0.27601108
184	0xbf740cb9	-0.95331913
185	0x3fc888bf	1.5666732
186	0x3f5a6754	0.85313916
187	0x3f6e002b	0.92969006
188	0x40cdcdc1	6.4313664
189	0x4084a835	4.145533
190	0x3ca5958e	0.020212915
191	0x4021f010	2.5302773
192	0xc05cdb89	-3.4508994
193	0x3e700e74	0.23443013
194	0x4009e524	2.1546106
195	0xbf516dca	-0.8180815
196	0x3eab1e5a	0.33421594
197	0x4012a07d	2.2910454
198	0x400b1936	2.1734138
199	0x4076c309	3.855654
200	0xbff7d6ef	-1.9362468
201	0x3e5a9783	0.2134686
202	0xbe774474	-0.24147207
203	0x402857a6	2.6303496
204	0xc02fa91b	-2.7446964
205	0xbf8efac3	-1.1170276
206	0x3f1b7b15	0.60734683
207	0xbfec9b43	-1.8484882
208	0x40c3a44c	6.113806
209	0xc0173ddb	-2.3631504
210	0xbee95f28	-0.4558041
211	0xbf859347	-1.043557
212	0xbf736530	-0.95076275
213	0xc028d92c	-2.6382551
214	0x3facee75	1.3510271
215	0x3ff32498	1.8995543
216	0xbf6aa577	-0.9165873
217	0xbda2b283	-0.07944205
218	0xc01e10c0	-2.4697723
219	0xbf1dfe60	-0.6171627
220	0x3f367b54	0.71281934
221	0x4051149d	3.2668831
222	0xbcbe4977	-0.02322839
223	0xbf603e7b	-0.8759534
224	0xbc20388c	-0.009779107
225	0xbd5fb5bb	-0.05461667
226	0xc04ae3e1	-3.1701586
227	0xbdbe8120	-0.093019724
228	0xc0d79c34	-6.737818
229	0xbf675c7f	-0.9037551
230	0xc0788023	-3.8828208
231	0x3e4d715c	0.20062774
232	0xbfa5c6eb	-1.295133
233	0xc00405dd	-2.0628579
234	0xc02c1c1c	-2.6892157
235	0x3f83adda	1.028743
236	0xbe78e9ce	-0.2430794
237	0xbf59289d	-0.84827596
238	0xc0462126	-3.0957732
239	0x40ce71f8	6.451412
240	0x3f88214d	1.0635163
241	0xc013d6ef	-2.3099935
242	0x3e7d2922	0.24722722
243	0x402fd2ab	2.7472332
244	0xbf3c6238	-0.7358737
245	0x3f333640	0.70004654
246	0xc00fb3e4	-2.2453547
247	0x40821f44	4.0663166
248	0x4064115f	3.5635602
249	0x3faca180	1.3486786
250	0xc0da01d3	-6.8127227
251	0x3dfd5e66	0.12371521
252	0x409e98e4	4.9561634
253	0xc0413fc0	-3.019516
254	0xc07805b8	-3.875349
255	0x403f39d5	2.9879048

rnn.weight_hh_l0 f4 [8, 8]
0	0x3e142df2	0.14470652
1	0xbeaf2512	-0.3420797
2	0x3e9d44d3	0.3071657
3	0xbde6443e	-0.11243485
4	0x3e45ef36	0.19329533
5	0x3da4f918	0.08055323
6	0x3d3e2d18	0.046429724
7	0xbb8b15c0	-0.004244536
8	0xbe63d9f7	-0.22251116
9	0x3d245f68	0.04013005
10	0x3ea16767	0.31524202
11	0x3e77e6aa	0.24209085
12	0xbd9127a0	-0.07087636
13	0xbdcaa32c	-0.09894404
14	0xbe182ab9	-0.14860047
15	0x3e9de437	0.30838177
16	0xbc97c690	-0.0185273
17	0xbdb46fd8	-0.08810395
18	0xbeb2a172	-0.34888798
19	0x3a613c00	0.00085920095
20	0xbe9da498	-0.30789638
21	0xbe41c0d0	-0.18921208
22	0xbe666a7b	-0.22501557
23	0xbe90eb90	-0.2830472
24	0x3e9e84bd	0.30960646
25	0xbe938862	-0.2881499
26	0x3e91be43	0.2846547
27	0xbe6569d9	-0.22403659
28	0xbea64082	-0.3247109
29	0x3e7ba50e	0.24574682
30	0xbe950b34	-0.2911011
31	0xbe5135c2	-0.20430663
32	0xbe013600	-0.12618256
33	0x3e4b51ea	0.19855466
34	0xbe9f8856	-0.31158704
35	0x3eb3c61d	0.35112086
36	0x3df535fc	0.11973187
37	0xbd9e8444	-0.077400714
38	0xbdefee6e	-0.11715399
39	0x3e934bcf	0.28768775
40	0xbe6efd38	-0.23338783
41	0xbe20dd1a	-0.15709344
42	0xbe9d18d9	-0.3068302
43	0xbe3932ae	-0.18085739
44	0x3d9fa3d4	0.077949196
45	0x3e858a5b	0.2608212
46	0x3e759b3a	0.23984995
47	0x3e91d9fd	0.28486624
48	0xbe33e1fa	-0.17566672
49	0x3e37c2aa	0.17945352
50	0x3e92d333	0.28676757
51	0xbeb0660c	-0.34452856
52	0xbe75eb76	-0.24015602
53	0x3e90bbfd	0.28268424
54	0xbe2fb734	-0.1715973
55	0xbdedfe76	-0.116208
56	0xbe0186e3	-0.12649111
57	0xbeb2ba84	-0.34907925
58	0xbe17643c	-0.1478433
59	0x3d4ecfd0	0.050491154
60	0x3e67a34a	0.22620884
61	0xbd83812c	-0.06421122
62	0x3de24954	0.110491425
63	0x3e883059	0.26599386

rnn.bias_ih_l0 f4 [8]
0	0x3e122004	0.14270025
1	0xbd2ea11e	-0.042634122
2	0x3f169209	0.5881658
3	0x3e119754	0.14217883
4	0x3dfcfa3a	0.123524144
5	0xbe3b8a8e	-0.18314573
6	0xbe9e020d	-0.3086094
7	0x3d8146c4	0.063123256

rnn.bias_hh_l0 f4 [8]
0	0x3d12b633	0.03581829
1	0xbe4b2c66	-0.19841155
2	0x3e81ac20	0.25326633
3	0x3e1b2c64	0.15153652
4	0x3ed14579	0.40873316
5	0xbdf5e604	-0.120067626
6	0xbec10021	-0.3769541
7	0x3eb4f226	0.35340995

rnn.weight_ih_l0_reverse f4 [8, 511]
0	0xc08a54c6	-4.3228483
1	0xbfeab6fb	-1.8337091
2	0xbffb5dec	-1.9638038
3	0xbf20399f	-0.6258792
4	0x4114b94f	9.295241
5	0x3f8504e1	1.0392114
6	0x3f29ec96	0.66376626
7	0x3f94f32f	1.1636714
8	0xbf309229	-0.6897302
9	0x3eccf3d6	0.40029782
10	0x40298804	2.6489267
11	0x3f91f65b	1.1403307
12	0x3fb21adc	1.3914447
13	0xc04ddc9b	-3.2165897
14	0x3fd979b3	1.6990265
15	0xbf136681	-0.57578284
16	0xbfed4943	-1.8537983
17	0x402d7278	2.7101116
18	0xc078d29e	-3.887855
19	0x402e111a	2.7197938
20	0x408f1ddb	4.4723945
21	0x4023abc5	2.557359
22	0x3f96044b	1.172006
23	0xbf6a19e1	-0.9144574
24	0xbf8c235a	-1.0948288
25	0x40fcdf4d	7.9022584
26	0xc038c292	-2.8868756
27	0xc10db4a0	-8.856598
28	0xc071c10e	-3.7774081
29	0x3f33b5bb	0.70199174
30	0xbf11d275	-0.56961757
31	0x3f9402b0	1.156332
32	0xc0b63548	-5.694004
33	0xbdb062c1	-0.08612586
34	0x402e9878	2.728056
35	0x3f9f8d07	1.2464913
36	0xbf118eec	-0.56858706
37	0x3fab75ca	1.3395321
38	0x40866ed8	4.2010307
39	0xc0ecb1d0	-7.3967056
40	0xbe22772f	-0.15865777
41	0x400dd04a	2.215838
42	0x404bf15b	3.1866062
43	0x40259eb5	2.5878117
44	0xbf21ee61	-0.6325436
45	0xc08d7ece	-4.421729
46	0xbf9d3afd	-1.2283627
47	0x3ff1dbbd	1.8895184
48	0x4083e7f4	4.1220646
49	0x40a77685	5.2332177
50	0x3fbfcdd8	1.4984694
51	0x3f924457	1.1427106
52	0xc0eee268	-7.4651375
53	0xc086a098	-4.2071037
54	0xc0f5e69e	-7.6844015
55	0x4024f7ea	2.5776315
56	0xc0978d6b	-4.736013
57	0x3fc467f6	1.5344226
58	0x3f3dd896	0.7415861
59	0xbfc528fc	-1.5403132
60	0xbf9e24cb	-1.2354978
61	0xc0e20022	-7.062516
62	0x40274df4	2.614133
63	0xc086f2fb	-4.2171607
64	0xbf0343ad	-0.5127514
65	0xc04121cc	-3.0176878
66	0xbf35ed95	-0.71065646
67	0x3dbc924e	0.09207593
68	0xbfbb3d1b	-1.4628023
69	0x3fb9aea0	1.4506416
70	0x3ea93d68	0.33054662
71	0xc0c1da1b	-6.057874
72	0x3f919ec1	1.1376573
73	0xbf98b669	-1.1930667
74	0xbf5376be	-0.8260306
75	0xc067176b	-3.6108043
76	0x3e4a898e	0.19779035
77	0xc030faca	-2.765307
78	0x3ea7388f	0.32660338
79	0xbef2b3f7	-0.47402927
80	0xbe30ecb9	-0.17277803
81	0x3e6b59e7	0.22983514
82	0x4025cd8a	2.59067
83	0x401aa31d	2.4162056
84	0xc06518cf	-3.5796392
85	0xc0e94726	-7.289935
86	0xbf466851	-0.77502924
87	0xbff16a6e	-1.8860605
88	0x3f69d238	0.91336393
89	0x3ee647b0	0.44976568
90	0x3f7b28e8	0.98109293
91	0x403f640c	2.9904814
92	0x3ee54da3	0.44785795
93	0x401b2c5d	2.4245827
94	0xbf35a8cf	-0.70960706
95	0xbfa64fec	-1.299314
96	0xbed35a65	-0.41279903
97	0x401c0c4d	2.4382508
98	0x400684e8	2.101862
99	0xbfd8fb3d	-1.6951672
100	0xbf8dafb1	-1.1069242
101	0x409e3a18	4.9445915
102	0x3fe27ff7	1.7695302
103	0xbf057d6a	-0.5214449
104	0x3fa17eba	1.2616799
105	0xc12e740a	-10.90333
106	0x3f2d58a8	0.67713404
107	0xbf327470	-0.6970892
108	0xc0398cd9	-2.8992217
109	0xbe871360	-0.2638197
110	0xc038b3e6	-2.8859801
111	0x3f4edfca	0.80810225
112	0x40130bfe	2.297607
113	0x3e1820c4	0.14856249
114	0x3dcb30ce	0.09921418
115	0xbf774462	-0.9658872
116	0x3f79f574	0.97640157
117	0xbf615c00	-0.88031006
118	0x3ffeb831	1.9899961
119	0xc02715d2	-2.6107068
120	0xbea018e9	-0.31269005
121	0x3ffa2ba8	1.9544573
122	0x3f08fa11	0.5350657
123	0xbee7698d	-0.45197716
124	0x40c9ee55	6.3103433
125	0xbf6278f1	-0.8846579
126	0xbf948cbd	-1.160545
127	0x40e79f6c	7.2382107
128	0x4021f426	2.5305266
129	0x3e9153f8	0.28384376
130	0xbef53fdb	-0.4790028
131	0x3f156237	0.5835299
132	0xc031deff	-2.7792356
133	0xc0d371f2	-6.6076593
134	0xbf0cbe6c	-0.5497806
135	0xbf2d5f93	-0.6772396
136	0xc0f379ee	-7.608634
137	0x40a3442c	5.102072
138	0xbfe2b22d	-1.7710625
139	0xc02538fc	-2.581603
140	0xbf10df36	-0.5659059
141	0x4010e0b5	2.263715
142	0xc043cbdb	-3.0593174
143	0xbf872748	-1.0558863
144	0xc0f33aac	-7.600912
145	0xbfdbef35	-1.7182375
146	0xc022d930	-2.544506
147	0x4017c5c5	2.371446
148	0xbf5a94b3	-0.85383147
149	0xc06578b2	-3.5854917
150	0xc0a8d760	-5.276291
151	0x40d662ee	6.6995764
152	0xbff70c38	-1.9300604
153	0x4070d19a	3.762793
154	0xbfe6af65	-1.8022276
155	0x40647161	3.56942
156	0xbf50180d	-0.812867
157	0x3f3ef069	0.74585587
158	0x3fe7c662	1.8107417
159	0xc0501b6a	-3.2516732
160	0x3e64a9dc	0.22330421
161	0x3f69daec	0.91349673
162	0xc0116999	-2.2720702
163	0x40fcdaf5	7.901728
164	0x3fc852c9	1.5650264
165	0xc00b2636	-2.1742072
166	0xbf88de25	-1.0692793
167	0xc01b6f4e	-2.4286685
168	0x4075ae78	3.8387737
169	0xbfc8d9af	-1.5691432
170	0x4145e8da	12.369349
171	0x3f55b1df	0.83474535
172	0xbfaf5888	-1.3698893
173	0xbfd6570b	-1.6745313
174	0xc03f43ef	-2.9885213
175	0x4070dbf9	3.763426
176	0xc040e67b	-3.0140674
177	0x3ff77ec9	1.9335567
178	0x403bb585	2.932954
179	0x3f84d1b1	1.0376493
180	0xc11c7510	-9.77858
181	0x3e42cf7b	0.1902446
182	0x3fdf758c	1.7457747
183	0x3f0cb51b	0.54963845
184	0xc0c087bd	-6.0165696
185	0x3fd62f4c	1.6733184
186	0xbede000c	-0.4335941
187	0x3f7845af	0.9698133
188	0x3e957e3e	0.29197878
189	0x407ab8f1	3.917538
190	0xc0268afb	-2.6022327
191	0x3fb2a7e0	1.3957481
192	0x3f3d0d64	0.7384856
193	0x4027bf52	2.6210523
194	0xc043b684	-3.0580149
195	0xbf40ae3d	-0.75265867
196	0x3f851b5a	1.0398972
197	0xc03f1a10	-2.9859657
198	0xc04451da	-3.0674958
199	0xbf290897	-0.6602873
200	0x3e847294	0.25868666
201	0x4050bbbd	3.2614586
202	0x3e4d4fc6	0.20049962
203	0x40189d65	2.3846066
204	0x40a03a7e	5.00714
205	0xc0371b7c	-2.8610525
206	0xbfb7f661	-1.4372064
207	0xbfe3ef05	-1.7807318
208	0x3fd67d2d	1.6756951
209	0xbeccb8fb	-0.3998488
210	0xbfc58dc1	-1.5433885
211	0xbf3cb4bb	-0.7371327
212	0xc09a6fdf	-4.826156
213	0xbecc39d2	-0.39887863
214	0x4033a6f3	2.8070648
215	0x3f791a8e	0.97306144
216	0x3ec26720	0.37969303
217	0xc124e650	-10.306229
218	0xc0240fb6	-2.563459
219	0x3f4669c8	0.7750516
220	0x412ba2d5	10.727254
221	0x3f63ee2d	0.890353
222	0xbe4b1399	-0.19831695
223	0x3f86ef18	1.0541716
224	0x4100da9e	8.053373
225	0x3fb998ec	1.4499793
226	0xc1124bfd	-9.143552
227	0x3f7f964a	0.998387
228	0x41503561	13.013032
229	0x4099ee86	4.8103666
230	0xbea8ac25	-0.32943836
231	0x40585eea	3.380793
232	0x3ff76ef4	1.9330735
233	0x3e818a06	0.25300616
234	0xbfcbd6d8	-1.592494
235	0xc0431fd2	-3.0488172
236	0xbfc18167	-1.5117615
237	0xc0a223e8	-5.066883
238	0x40c04180	6.0079956
239	0xbd5807cc	-0.05274181
240	0x40a5b71e	5.178603
241	0xbfd7ada9	-1.6849872
242	0x3e5d5cfa	0.21617499
243	0x3f3a1753	0.7269184
244	0x406c792b	3.6948955
245	0x3f83a9f7	1.0286244
246	0x3fbd1f75	1.4775225
247	0xc100af55	-8.042806
248	0x3eb3c9d5	0.35114923
249	0x3fbb3444	1.4625325
250	0xbfb02c38	-1.3763494
251	0x4006bfa8	2.1054478
252	0xc0c6fdfa	-6.218503
253	0x4009ef86	2.1552444
254	0x3f9d31d2	1.2280829
255	0x3f60a009	0.87744194

rnn.weight_hh_l0_reverse f4 [8, 8]
0	0x3e3935f2	0.18086985
1	0xbe4fec12	-0.20304897
2	0x3e226fea	0.15863004
3	0x3e73e0c6	0.23816213
4	0x3e94b827	0.29046747
5	0x3db80138	0.089846075
6	0xbe7d474e	-0.24734232
7	0x3e7a59e6	0.24448356
8	0xbe6ccdca	-0.23125377
9	0x3eab7b07	0.334923
10	0xbeb42e2c	-0.35191476
11	0xbe473ca1	-0.19456722
12	0xbd9968cc	-0.074906915
13	0xbd7532c0	-0.059862852
14	0xbeb2c5b5	-0.34916463
15	0xbe9e8ec5	-0.309683
16	0x3e0a30ee	0.13495228
17	0x3dfe7f68	0.124266446
18	0xbe837ad7	-0.25679657
19	0x3e7e2616	0.24819216
20	0x3eb0eb8f	0.34554717
21	0xbe91b51c	-0.28458488
22	0x3e8cd08d	0.27502862
23	0x3e62af32	0.22137144
24	0x3dc5c554	0.09656778
25	0xbbe7b5c0	-0.007071227
26	0xbdfbb0e0	-0.122895956
27	0xbc4537a0	-0.012037188
28	0x3d1a8680	0.037725925
29	0x3e3f0242	0.18653205
30	0xbdc29c60	-0.095024824
31	0x3e3d9f0e	0.18517706
32	0xbea03368	-0.3128922
33	0xbdb191cc	-0.08670387
34	0xbcb21ac0	-0.021741271
35	0x3e7e348a	0.2482473
36	0xbe9977d6	-0.2997424
37	0xbe282107	-0.16418849
38	0x3cd10e30	0.02551946
39	0x3b54dc00	0.0032479763
40	0x3e8ddd2b	0.277078
41	0x3eabcb81	0.335537
42	0x3e1e12e6	0.15436897
43	0xbd8779cc	-0.06615028
44	0x3e843c2f	0.25827166
45	0xbe2adbc2	-0.16685393
46	0xbe456105	-0.19275291
47	0x3e876943	0.26447496
48	0x3d894e70	0.06704414
49	0x3eb10327	0.34572718
50	0x3db1c30c	0.0867978
51	0x3db916f4	0.09037581
52	0xbe3308a1	-0.1748376
53	0xbd6fcd18	-0.058545202
54	0xbe249e6a	-0.16076055
55	0x3e989c7f	0.29806897
56	0xbe8b7d22	-0.27243906
57	0xbc8027d0	-0.015643984
58	0x3e0159f2	0.12631968
59	0x3eb08c63	0.34482107
60	0x3e20a562	0.15688089
61	0xbe9be4fc	-0.3044814
62	0xbc6d5f00	-0.014487982
63	0x3ea02d31	0.31284478

rnn.bias_ih_l0_reverse f4 [8]
0	0x3e6fde98	0.23424757
1	0x3ec08ce5	0.37607494
2	0x3f0bd92c	0.54628253
3	0x3ca9b246	0.02071489
4	0xbda5a018	-0.08087176
5	0x3e3ce286	0.18445787
6	0x3da4e3e6	0.08051281
7	0x3eef6289	0.46754864

rnn.bias_hh_l0_reverse f4 [8]
0	0x3e49a76c	0.19692773
1	0xbd0d9e46	-0.03457477
2	0x3ea52689	0.32255962
3	0x3d32f62f	0.04369181
4	0x3e95c0c7	0.2924864
5	0x3e8a7896	0.27045125
6	0xbebc9a07	-0.36836264
7	0x3e2a961d	0.16658826

fc.weight f4 [111, 16]
0	0x3fc5b14f	1.5444735
1	0xbea458e4	-0.32099068
2	0xbfddb16c	-1.731977
3	0xbf83575d	-1.0261036
4	0xbfb81882	-1.4382479
5	0x401522f2	2.330258
6	0x3f759c66	0.9594177
7	0xbfea5873	-1.8308243
8	0x3fa90332	1.32041
9	0xbf4b3555	-0.79378253
10	0xbf47acad	-0.7799786
11	0xbf290848	-0.6602826
12	0xbfe81143	-1.8130268
13	0xbe784c39	-0.24247827
14	0xbeddc5b6	-0.43314904
15	0x3efcd8ed	0.4938425
16	0xc0a75846	-5.2295256
17	0xc0027300	-2.038269
18	0xc1107e99	-9.030908
19	0x40558260	3.3360825
20	0xc011ee49	-2.2801688
21	0x40d96079	6.7930264
22	0xc07ddc03	-3.9665534
23	0x40c320af	6.0977397
24	0xc0822126	-4.0665464
25	0xc10e970a	-8.911875
26	0x400c8467	2.1955812
27	0x406f2bd8	3.737051
28	0xbfacffba	-1.3515542
29	0xc0b7c1e7	-5.7424197
30	0xc10ec04d	-8.921948
31	0xc0a07e54	-5.015421
32	0xc06a9497	-3.6653192
33	0x404839f6	3.1285377
34	0x40903924	4.506975
35	0x40567463	3.3508537
36	0xc03e9059	-2.9775603
37	0xc03714b0	-2.8606377
38	0xbfdf185e	-1.7429311
39	0x40718186	3.7735305
40	0xc059a940	-3.4009552
41	0x4060f73f	3.5150907
42	0x403d4c2c	2.9577742
43	0x40441e53	3.0643508
44	0xc08b7bd7	-4.358867
45	0xc0113769	-2.269007
46	0x40710836	3.7661262
47	0x3fb35726	1.401097
48	0xc09ca153	-4.894693
49	0xc0428271	-3.0392115
50	0x4077e676	3.8734412
51	0xc06c0540	-3.6878204
52	0xc0493b44	-3.1442423
53	0x40b341b0	5.6017685
54	0x3f73ac8c	0.9518516
55	0xbf412bb9	-0.7545734
56	0xc0fa2b11	-7.817757
57	0xc0a1b3c8	-5.053196
58	0xbfdfa6ca	-1.7472775
59	0xbf072217	-0.5278639
60	0xc0a1833b	-5.0472693
61	0xc0262b9b	-2.5964115
62	0x407ab6ff	3.9174192
63	0x3f921987	1.141404
64	0x4053490b	3.3013332
65	0xc0896c12	-4.294442
66	0xc05efa27	-3.484018
67	0xbf18e194	-0.59719205
68	0x407cbabe	3.9488978
69	0x4040005c	3.000022
70	0x40b9e656	5.809367
71	0x4015d032	2.3408322
72	0x40261187	2.5948198
73	0x4075f9f2	3.8433805
74	0xbff11b4f	-1.8836459
75	0x40cdd90f	6.4327464
76	0xc092831a	-4.5785036
77	0x407f930e	3.9933505
78	0xbfeb5e7e	-1.8388212
79	0xbfa8242e	-1.3136041
80	0xbf88e713	-1.0695518
81	0xbfc462d8	-1.5342665
82	0x3f0d6c27	0.5524315
83	0x3fdd3d21	1.728428
84	0xbf0fd81e	-0.56189144
85	0xbfc15a0c	-1.5105605
86	0xbfac82ba	-1.3477395
87	0xbfa38419	-1.2774688
88	0xc001d280	-2.028473
89	0x3e736347	0.2376834
90	0xbf8f185c	-1.1179309
91	0xbe667cb3	-0.22508506
92	0x3ec043a8	0.37551618
93	0x40013491	2.0188334
94	0xbf766c7a	-0.9625927
95	0x3f59ee34	0.85129094
96	0x3e1f1f49	0.15539278
97	0xbfcb49d9	-1.5881912
98	0x3e6d7486	0.23188981
99	0x3ff022f4	1.8760667
100	0xbfb86f6b	-1.4409002
101	0x3fc48766	1.535382
102	0x3e8c75e4	0.27433693
103	0x3fd1193e	1.6335828
104	0x3efb09a8	0.49030805
105	0x3faf20ef	1.3681926
106	0xbfda4f2b	-1.705541
107	0xbe9cfc29	-0.30661133
108	0xbf356d1b	-0.70869607
109	0xbfd8c25e	-1.6934316
110	0x3f164f28	0.5871453
111	0x3eeea596	0.46610707
112	0x4014858f	2.3206518
113	0xbfe134c2	-1.7594225
114	0x40bcaa64	5.8957996
115	0xc0252af5	-2.580747
116	0x40814a48	4.0403175
117	0x40a6ac8d	5.2085633
118	0xc035fa8e	-2.8434176
119	0xbe5931c4	-0.2121039
120	0xc0ba544f	-5.8227916
121	0x40402286	3.0021071
122	0x40a9cc85	5.306216
123	0xbf8da6a5	-1.1066481
124	0xc027b780	-2.620575
125	0x4077b30b	3.870303
126	0xc001bb6a	-2.0270638
127	0xc068850f	-3.6331213
128	0x40244687	2.5668046
129	0x3fa7cd57	1.310954
130	0xc0066b80	-2.1003113
131	0xbf4a3245	-0.78982955
132	0x3f1acd9e	0.60469997
133	0x3f7238aa	0.9461771
134	0x3fd614d8	1.6725111
135	0xbee50812	-0.4473272
136	0x3fb96e78	1.4486837
137	0xbfd85901	-1.6902162
138	0x4014ada0	2.3230972
139	0x3f0006dd	0.5001047
140	0x3f4afc9d	0.7929171
141	0x3cc99702	0.024608139
142	0x3f4eabc2	0.8073083
143	0x3fdfc965	1.7483336
144	0xbeb768b4	-0.3582207
145	0xbf4abca2	-0.7919408
146	0x3f6a1654	0.9144032
147	0x3f82f375	1.0230547
148	0xbf547e90	-0.8300562
149	0xbfb1758e	-1.3864
150	0xbf8cc3ce	-1.0997255
151	0xbf8228e3	-1.0168728
152	0x3fc71834	1.5554261
153	0x3f853d21	1.040928
154	0xbf998bd6	-1.19958
155	0xbf1e31c3	-0.6179468
156	0x3fe209dc	1.7659259
157	0x3fb29f8c	1.395494
158	0x4022bd4a	2.5428033
159	0x3f91a3e4	1.137814
160	0x3fc46137	1.5342168
161	0xbf181cb2	-0.59418786
162	0xc006e98c	-2.1080046
163	0x40252684	2.5804758
164	0xbcc5d53c	-0.02414953
165	0x3c9195d3	0.017771637
166	0xbfd9ca7f	-1.7014922
167	0x3ee328b4	0.44366992
168	0x3bf9ba38	0.007621076
169	0xbd7d7dca	-0.06188754
170	0xbe91c2b9	-0.28468874
171	0xbf87a821	-1.0598184
172	0x3fcf8ea5	1.6215407
173	0x3ffb78b8	1.9646215
174	0xbe81d974	-0.25361216
175	0x3f069a58	0.5257926
176	0x3ddc8341	0.10767222
177	0x4031c403	2.7775886
178	0x3f3d6285	0.73978454
179	0xbe61dd3d	-0.22057052
180	0xbe43ba3a	-0.19114009
181	0xc000617a	-2.0059495
182	0x3f3707c0	0.714962
183	0x3f0a9b6a	0.54143393
184	0x3f5f8a37	0.87320274
185	0xc000ea82	-2.0143132
186	0x3ed8604c	0.4226097
187	0x4002f8fd	2.046447
188	0x3fc98867	1.5744752
189	0xbf1f93fb	-0.62335175
190	0xbff578d6	-1.9177501
191	0x3bee95ca	0.00728104
192	0x3fa7439a	1.3067505
193	0x3f3a1abb	0.7269704
194	0xbfe5ac1b	-1.7943147
195	0xbf955cd6	-1.1668956
196	0x40205dfd	2.5057366
197	0xbf83a7ab	-1.0285543
198	0xbfcd4b95	-1.6038691
199	0xbeb6c3ac	-0.3569616
200	0xbfbd81d7	-1.4805249
201	0xbf3e7a9a	-0.74405825
202	0xbec038f4	-0.37543452
203	0xbf3c0c6c	-0.73456454
204	0xbfb70644	-1.4298787
205	0x3f06a0f9	0.52589375
206	0x3fb118d7	1.3835706
207	0xbfbf2ae9	-1.493497
208	0xbff573d6	-1.9175975
209	0xbfc755bb	-1.5573038
210	0xbfd5f1df	-1.6714438
211	0xbe7931f8	-0.24335468
212	0xbf235c28	-0.63812494
213	0x3fba959f	1.4576911
214	0x3f2231d5	0.6335729
215	0x3f8951fc	1.0728145
216	0xbe8c8d0f	-0.2745137
217	0x3f879626	1.0592697
218	0xbf1b9c29	-0.60785156
219	0x4021b7fd	2.5268548
220	0x3f973cd2	1.1815436
221	0x3fa74513	1.3067955
222	0x3f05d9ef	0.52285665
223	0xbf872f87	-1.0561379
224	0x3f76f696	0.9647001
225	0xbf6855b4	-0.9075577
226	0x3ecd5da1	0.40110496
227	0x3f8734aa	1.0562947
228	0x3f9c25a2	1.2198985
229	0xbfd391a9	-1.6528827
230	0xbfe4f1de	-1.7886312
231	0xc03ea873	-2.9790313
232	0xbffbb03d	-1.9663159
233	0xbfe84241	-1.8145219
234	0xbe9e88f8	-0.30963874
235	0xbe7a6100	-0.24451065
236	0x3f1c5f46	0.61082876
237	0xbee90ab5	-0.4551598
238	0x3ed7197e	0.42011636
239	0x3fa8cd3e	1.3187635
240	0x40b8fb01	5.78064
241	0x3ff5050f	1.9142169
242	0xbfe2789a	-1.7693055
243	0xc051acc2	-3.2761693
244	0x3fd3e286	1.6553504
245	0x40467b9f	3.1012952
246	0xbfd34382	-1.6504977
247	0xc0827811	-4.0771565
248	0x3fa523fc	1.2901607
249	0x404b6495	3.178014
250	0xc073421b	-3.8009098
251	0x40d1b0f0	6.552849
252	0x401e46b4	2.4730654
253	0x40c2d41d	6.0883927
254	0x4003cc86	2.0593581
255	0xc03a1db4	-2.908063

fc.bias f4 [111]
0	0xbf16f394	-0.5896542
1	0xc2069c95	-33.652912
2	0xc1a1a6f0	-20.206512
3	0xc1af6b36	-21.92735
4	0xc1b612f8	-22.759262
5	0xbef48195	-0.47755113
6	0xbe59bfec	-0.21264619
7	0xc1a98598	-21.190231
8	0xbe8430c5	-0.25818458
9	0xbf74e1c5	-0.95656997
10	0x3d66cc65	0.05634727
11	0xbe372fec	-0.17889374
12	0x3f111ddd	0.5668619
13	0x3e3d0e12	0.18462399
14	0x3f860928	1.0471544
15	0xc1a21515	-20.260294
16	0xc1d9e6a2	-27.237614
17	0xc1e538e4	-28.652779
18	0xbd00366f	-0.031301912
19	0xbf3dd327	-0.7415032
20	0xbed89d99	-0.42307737
21	0x3f09cd8e	0.53829277
22	0x3f1d5eff	0.6147308
23	0xc1a270ad	-20.305017
24	0xc1c24ba4	-24.286934
25	0x3d573353	0.05253918
26	0xc1e01aba	-28.01305
27	0xc1fc19aa	-31.512531
28	0xbe47d3f1	-0.19514443
29	0xbeba0871	-0.36334565
30	0xbe19aecd	-0.15008087
31	0xc1969c5b	-18.826345
32	0xc1dbed3e	-27.49084
33	0xc1fa771a	-31.308155
34	0xbeb4d98e	-0.3532223
35	0xbe22550a	-0.15852752
36	0xbf11c8e9	-0.5694719
37	0x3e6b4c7a	0.22978392
38	0xbf351eac	-0.70749927
39	0xc1cad649	-25.354631
40	0xbd81febc	-0.06347415
41	0xbf529789	-0.82262474
42	0xc1adbfd6	-21.71867
43	0xbf229b97	-0.6351866
44	0xc1ad23a1	-21.642397
45	0xbe719406	-0.23591623
46	0x3e630c94	0.22172767
47	0xc19fdaa1	-19.981752
48	0xc1ba953b	-23.322866
49	0xbf39c646	-0.72568166
50	0x3c216fdb	0.009853329
51	0xbf18c9b5	-0.5968278
52	0x3eed6778	0.46368003
53	0xc19d2d46	-19.647106
54	0x3e1a4f5e	0.15069339
55	0xbdaa1d2f	-0.083063476
56	0xbec495bd	-0.3839549
57	0xbeca2102	-0.39478308
58	0x3ea5cec2	0.32384306
59	0xbed14392	-0.40871865
60	0xc1a45117	-20.539595
61	0xc1dc774e	-27.558254
62	0x3e5a499c	0.21317142
63	0xbc032dd0	-0.008006528
64	0xc1bad6e0	-23.35492
65	0xbf0f9ec9	-0.5610166
66	0xbf194830	-0.59875774
67	0x3e916a22	0.28401285
68	0xc1dbd696	-27.479778
69	0x3f174528	0.590899
70	0xbef18e0f	-0.47178695
71	0xbf461fc8	-0.77392244
72	0xc19f71a4	-19.930489
73	0xbd8c3d5a	-0.068476394
74	0xc1c0dcc7	-24.107801
75	0x3edb13a3	0.4278842
76	0x3f1de9d9	0.6168495
77	0x3dd13413	0.102150105
78	0xbe259216	-0.16169009
79	0xc1b6a1e7	-22.829054
80	0xc1b29708	-22.323746
81	0x3fc31766	1.5241516
82	0x3da32a53	0.07967057
83	0xbf18ff4a	-0.5976454
84	0x3ef7b0d7	0.48377106
85	0xbdcc77d0	-0.0998379
86	0xbe86b048	-0.26306367
87	0xbea735ad	-0.3265814
88	0xc1b8b85a	-23.090015
89	0xbdf157c8	-0.11784321
90	0x3e6ed720	0.23324251
91	0x3f1fff95	0.6249936
92	0x3e29e497	0.16591106
93	0xc1d58edd	-26.694757
94	0xbe1c983b	-0.15292446
95	0xc1b2322c	-22.274498
96	0x401cf41f	2.4524
97	0xbd5e9f38	-0.05435106
98	0x3f4cd9a3	0.8001959
99	0xc1a2a886	-20.332287
100	0xc11df6d7	-9.872764
101	0xc1ae8376	-21.81419
102	0xc1999c7d	-19.20141
103	0xc1aedeeb	-21.858847
104	0xbe79b759	-0.24386348
105	0xc1a8823c	-21.063591
106	0xc1a15a60	-20.169128
107	0xc1aa06ea	-21.253376
108	0x3f83771f	1.0270728
109	0xc19f27e4	-19.894478
110	0xc1abcae7	-21.474073
