LSTM.pth (torch, 82583 bytes, 6 tensors)

lstm.weight_ih_l0 f4 [32, 511]
00000000: 7862 e03f b709 633f 27cc b63f 683e b43e
00000010: c372 0f41 00cb a240 4ad3 9940 f7ba 9040
00000020: b53f 7240 b6a2 a13f ce3e ae40 fadb 3c40
00000030: c63d ed3f 76b6 fe40 bd95 0c40 b248 a9be
00000040: a6f7 a13d 5ef5 083f c1f8 2441 0683 1840
00000050: 8498 3640 3b9b e340 1231 973f 6a38 45be
00000060: 2874 fc3f 5f43 7840 7969 0141 1402 7c3f
00000070: 0019 2640 8d27 143f fef8 49c1 acaf a840
00000080: 1707 ce3f 012c c340 9a67 0640 a436 7040
00000090: 5b83 2841 ad5c 90c0 5bed c13f 653e 953e
000000a0: 25fc 8b40 a80b 5e40 17e6 8e40 80f9 ef40
000000b0: 6742 8e3f bbab a4c0 de52 9941 7fe4 01be
000000c0: 49a3 2dc0 1d06 3d41 24ee d53f e4fa adbf
000000d0: 3ce0 703e 706e a240 55cc 1041 39b0 0640
000000e0: 2a5e c340 1b35 ee40 61eb 56bf 1b6b 4241
000000f0: 3589 d3bf 0076 5940 2f47 a240 4f6f 1c40
00000100: cd77 f9be 4a29 ec40 419f 9c3e 7128 1140
00000110: df9e 10bf b4d6 bd40 af5f a5bf 9a9d 0b41
00000120: 1ff0 e440 eec4 53c0 0758 a13f 6ecc 6b3e
00000130: cdf7 8c3f bcf8 3bc0 c1ac c93f a67a dcc0
00000140: 4336 ad40 d085 0140 4a6f ed40 285c fa3f
00000150: e301 943e 630b 2641 cb9c bd3f f095 24be
00000160: 7aa1 c33f ddcb bc3f 5643 6a40 22e9 2dbf
00000170: b99b aa3d fa60 1641 803c c53f 8db1 d1bf
00000180: aa83 0641 4287 8c40 f5ce 6ebf 328f 7a40
00000190: caf9 d440 8d04 b640 d846 343e 3151 cf40
000001a0: 3200 bbc0 97ef abc0 006d 5340 7ee5 d940
000001b0: a27c 1941 a5f0 0440 9bae 9a3f 7019 dd3f
000001c0: 2d34 6341 5806 1841 5379 4840 e2ef d3bf
000001d0: bfaa 1b41 f4dd 0f40 d962 2740 f35d 0e41
000001e0: 1909 afbd 9af8 b63e 6983 59bf 38f1 41c1
000001f0: 51af 2a41 1420 ebbf 2efa 8a3f 62a1 a440
00000200: e49a e93f e937 acc1 c30b 9040 e86f ae3f
00000210: 8e08 3b40 6b44 0941 db8d 8a40 e3ee ddbe
00000220: bec0 4b41 b1c8 1b41 0d02 9d40 b2ef ed40
00000230: 37af 2dbf 4091 5940 c5f6 e840 16b0 913f
00000240: bbd7 ee3f d2f4 a9bf 7c6b 8340 81ee 0441
00000250: 4b8c b840 1aa1 5040 b0e0 5c3f 4be5 ddc0
00000260: 7354 e0be 8954 bb40 dbad 9640 856a cc3f
00000270: afe9 c1c0 d486 3740 84ab 6940 f9c4 e13c
00000280: fd5e 0140 2e92 3441 c84a 993f cdce ba40
00000290: 5386 c040 66db a140 f7db 53c0 455b 2d3f
000002a0: 7032 1841 b411 58bd 9e66 babf b7c8 0d3f
000002b0: 677f 1c3f a6c9 6d40 142f ec40 5dca 7540
000002c0: 2dc1 d740 b33d b03f 271e ff3e 4c7f 843f
000002d0: f4d3 55c1 1063 533f 8584 4f41 fe72 0740
000002e0: 3964 a440 6c6f 2b40 8004 98c0 6855 4c40
000002f0: 0808 fd40 dfe9 1641 98c5 1240 eec1 5f3f
00000300: a114 8b40 6e02 f640 e124 d840 4e57 57bf
00000310: 1abb a93f ff36 d840 355b d740 0707 6240
00000320: 2ec2 8140 0f40 d340 a034 c33d d666 a240
00000330: f6f3 0341 21a0 2840 eda9 3c41 75ef 0ac1
00000340: 0d64 1240 c4a0 963e 8930 b9bd 78b8 14bf
00000350: 15f2 cf3f 8e56 9b3d 4b1c 9240 7c71 ed40
00000360: 296e 5241 3dc9 8141 dc93 3a40 34a1 c1bf
00000370: e421 70c0 fbfb bf40 024c cec0 aa9e 3f40
00000380: 86bc b5c0 8612 883f 0713 69c0 563f c83f
00000390: 2e99 133f 2da6 c4bf 54f0 07c0 8ff8 f240
000003a0: 89d6 9a3f d8b7 1140 5bcf e63d e8b3 6a40
000003b0: 99d2 81be d395 bb40 5ef8 eb40 ef9f 3c41
000003c0: e815 4e40 f336 48be c25e ac3f 5456 4640
000003d0: e685 9240 bdbc febf 3843 2140 7ee6 0541
000003e0: ab75 413e 2e26 b83f 109b 2ac0 7021 8cbd
000003f0: e168 0cc0 c78b ba40 8a0e 7f40 2108 90bf
1.753005 0.886867 1.4281052 0.35203862 8.965518 5.0872803 4.807042 4.522823
3.7851384 1.262778 5.4451666 2.9509263 1.8534477 7.959773 2.1966393 -0.33063275
0.07908563 0.534994 10.310731 2.382997 2.8530588 7.112699 1.181185 -0.19259802
1.9722948 3.879112 8.08825 0.9844067 2.5952759 0.5787285 -12.623289 5.2714443
1.6095914 6.0991216 2.1000733 3.753335 10.532069 -4.511313 1.515056 0.29149166
4.3745294 3.4694614 4.465587 7.4992065 1.1114014 -5.145963 19.165462 -0.1268482
-2.7130911 11.8139925 1.67133 -1.3592191 0.23523039 5.075981 9.049886 2.1045058
6.1052446 7.4439826 -0.8395291 12.151149 -1.6526247 3.3978271 5.0711894 2.4442937
-0.48724213 7.38004 0.3059025 2.2680933 -0.5649242 5.932459 -1.2919825 8.725977
7.1543117 -3.3088946 1.2604989 0.23027202 1.1013123 -2.9370565 1.5755845 -6.8899717
5.4128737 2.0237923 7.419835 1.9559374 0.2890769 10.37778 1.4813474 -0.16072822
1.5283654 1.4749714 3.6603599 -0.6793386 0.08330483 9.398676 1.5409088 -1.6382309
8.407145 4.391511 -0.9328454 3.91499 6.655492 5.6880555 0.1760515 6.478661
-5.843774 -5.372997 3.3035278 6.809264 9.592928 2.0771878 1.2084535 1.7273388
14.200238 9.501549 3.132405 -1.6557581 9.729186 2.247922 2.6154082 8.897937
-0.08546657 0.35736543 -0.8496614 -12.121391 10.667802 -1.8369164 1.0857599 5.1447
1.8250394 -21.5273 4.5014358 1.3627901 2.9223971 8.579204 4.3298163 -0.4334632
12.734556 9.736497 4.9065003 7.4355097 -0.6784548 3.3994904 7.280123 1.1381862
1.8659586 -1.3277838 4.1068707 8.3082285 5.7671256 3.2598329 0.86280346 -6.93424
-0.4381443 5.854069 4.7087226 1.5970007 -6.059776 2.8676043 3.6510935 0.027559744
2.0214226 11.285688 1.1975946 5.837744 6.016397 5.058032 -3.3103006 0.6771739
9.512314 -0.052751258 -1.4562566 0.5538439 0.611319 3.7154326 7.380747 3.8404763
6.742331 1.3768829 0.49827692 1.0351348 -13.364246 0.8257303 12.969853 2.1163936
5.137234 2.6786757 -4.7505493 3.1927128 7.9072304 9.432097 2.2933102 0.8740529
4.346268 7.6877966 6.754502 -0.8411759 1.3260224 6.7567134 6.7298837 3.531679
4.0549536 6.6015697 0.09531522 5.075053 8.247061 2.6347735 11.791486 -8.683461
2.2873566 0.2941953 -0.090424605 -0.58093977 1.6245753 0.07584868 4.5659537 7.420103
13.151895 16.22326 2.9152746 -1.512732 -3.7520685 5.9995093 -6.4467783 2.994059
-5.679263 1.0630653 -3.6417863 1.5644329 0.5765561 -1.5363213 -2.1240435 7.5928416
1.2096721 2.276846 0.11270019 3.6672306 -0.25355986 5.862039 7.3740683 11.789046
3.220087 -0.19552211 1.3466418 3.099019 4.578845 -1.9901348 2.5197277 8.3687725
0.18892543 1.4386652 -2.6657143 -0.06842315 -2.1939013 5.8295627 3.9852624 -1.1252481

lstm.weight_hh_l0 f4 [32, 8]
00000000: cba4 8cbe 95e7 25be d057 50bd d906 2dbe
00000010: 0639 453e 42be 383e 18dd 9abd cc17 e43d
00000020: 24b4 afbd c855 a8be 88a5 d13d de7b 4b3e
00000030: c8e8 e63d c1d1 8e3e 9d23 34be 3007 bbbc
00000040: 2a61 85be c94d a63e 0c16 1fbe f05e 0b3e
00000050: 5c20 7bbe 0277 063e 5894 a5be f437 00be
00000060: cf99 9b3e b86e a4be f887 6fbe 0387 abbe
00000070: 7e35 21be cd4a 3bbe b148 47be 1e54 b1be
00000080: 7698 2a3e b765 3fbe dc82 e63d 407e 2dbd
00000090: 4857 82be 4fd3 b4be 5819 883d 5876 6dbe
000000a0: 4536 9f3e 4a37 78be 8a8d a4be f2b6 793e
000000b0: 83b1 b23e 3e0e 743e 5c71 063e da98 263e
000000c0: 8792 69be e838 c6bd a8dc 08bd 91ee 53be
000000d0: 901b ea3c 44a8 083e 80b3 04bc 000c d93b
000000e0: 58d5 3ebd b2dd 1a3e e0d0 e03d c025 4dbc
000000f0: b843 4abd a5c1 833e cec5 67be defb 263e
00000100: 7034 563d 6c00 9e3d cfd0 a83e 4b64 1dbe
00000110: 32ba 88be 4653 a3be 48fc 1cbd 244f cdbd
00000120: 9c21 7dbe d864 a0bd 99f3 aa3e 348f c03d
00000130: 751f 17be a6e5 4dbe 8f5d ab3e fae8 643e
00000140: aabd 75be 3450 15be 596d a63e 38be 5fbd
00000150: fa99 3fbe 9297 6abe 30de fc3d 4451 fa3d
00000160: 2419 9bbe 972e 8bbe 7f67 0abe 348b ec3d
00000170: a488 9e3d cd3a b3be 078e 40be 00c5 d83b
00000180: 007a ea3d b53d 26be 1657 723e b4be debd
00000190: e1be 833e 8809 94be 3882 92be ecfb 5cbe
000001a0: 607a 05bc c045 813c 3852 6d3d f228 433e
000001b0: 1ce0 c53d 1f67 af3e 2b8b ab3e 4fff 9f3e
000001c0: d548 76be cd72 14be 5845 77bd fed4 413e
000001d0: 2bcc 973e 6035 e7bc 289e 18bd 1a5c 363e
000001e0: 144b c2bd d61c 683e 750d a0be b8dd 4fbe
000001f0: 7a6b 563e 8dcd a03e 6249 68be 05bb 9a3e
00000200: e4d6 89be a0da 0ebc c03e 15bc 2f1f 923e
00000210: 1613 60be c570 adbe 668c 423e 75e3 8e3e
00000220: d0c2 e93c 7046 cebc 9630 6abe f039 b43c
00000230: 5006 6ebd 56bb 73be 0e7d 6d3e b8f4 38be
00000240: cb3b 8bbe 9a9b 88be 0884 823d 2251 753e
00000250: 9fe5 a63e b286 71be 0bf2 65be b1a7 80be
00000260: d186 02be 708a b53c 426c 203e e80a 063e
00000270: 5cd2 ed3d 182b 8abd 1624 233e f292 3c3e
00000280: b427 64be b635 6b3e e06c 3fbe fa56 273e
00000290: 9080 aabc 1bb0 08be 5080 d2bd 281c 873d
000002a0: 15bd b13e 9b80 aabe 7662 543e 8e46 1e3e
000002b0: caae 343e 2027 d9bd 1efb d9bd 0c1a d2bd
000002c0: e49a 4ebe 1ef8 193e c7a0 943e 409f cf3d
000002d0: a05f 5abc be19 053e b031 e43c 60d0 93be
000002e0: a686 453e a8d8 49be 7451 8e3d 2034 9b3d
000002f0: b0d4 2c3d 4880 cdbd 08eb a83d cdb3 863e
00000300: 20bf cebc f4e3 b1be aa46 793e dca0 99be
00000310: c737 60be a814 e03d f81c 5bbe f644 91be
00000320: 9a7a 5d3e 0464 73be 92ed f3bd 87df 2cbe
00000330: 7a31 713e 8a01 2cbe 1041 e1bd 04a1 a2bd
00000340: 08b4 123e a0f4 a3bd 0351 8a3e ea7a 99be
00000350: f987 a13e f01c d8bd f649 3c3e 682a 293d
00000360: 68d2 4cbd 877c 933e d484 e23d 5006 34bd
00000370: 445b de3d d0d5 85bd 20bf 7ebd a06a dfbc
00000380: 08c7 583d 0cbe 3fbe d652 30be cf82 af3e
00000390: 88c1 213d daee 703e 40e1 d93b b0ea f23c
000003a0: 602d c5bc f0ad d0bc 47aa 8c3e 104d 4a3d
000003b0: c940 a13e f8b3 25bd a613 6c3e 41db 12be
000003c0: 794a 93be 9df6 1ebe 9aa2 82be f8b3 3ebd
000003d0: aef5 97be 3efa 5d3e bf52 0ebe cf9f 8a3e
000003e0: f241 84be c7b9 77be c3c9 a93e f577 a7be
000003f0: 8a6d 02be c533 91be ddda a03e 3656 20be
-0.27469477 -0.16201623 -0.050864995 -0.16897143 0.19260034 0.18041328 -0.075617015 0.111373514
-0.08579281 -0.32877946 0.10236651 0.1987147 0.11274868 0.27894405 -0.1759171 -0.022830576
-0.26050693 0.3248122 -0.15535754 0.13610435 -0.24524063 0.13131335 -0.3233974 -0.12521344
0.30390784 -0.32115722 -0.23391712 -0.33501443 -0.15743062 -0.18290253 -0.19461323 -0.3463449
0.16659722 -0.18691145 0.11255428 -0.04235673 -0.25457215 -0.35317466 0.06645459 -0.23189676
0.31096092 -0.24239841 -0.32139236 0.24386194 0.34901056 0.23833558 0.1312918 0.16269246
-0.22809802 -0.09678823 -0.03341356 -0.20696475 0.028577596 0.13345438 -0.008099437 0.006623745
-0.04659018 0.15123633 0.1097734 -0.012521207 -0.049380988 0.25733677 -0.2263405 0.16307017
0.052296102 0.07714924 0.32971808 -0.1537029 -0.26704556 -0.3189947 -0.03832653 -0.100248605
-0.24719852 -0.078317344 0.33388975 0.09402314 -0.14758094 -0.20107135 0.33469817 0.22354499
-0.23998132 -0.14581376 0.325053 -0.054624766 -0.18711081 -0.22909382 0.123470664 0.122225314
-0.30292618 -0.27183983 -0.13516043 0.115499884 0.07740906 -0.350058 -0.18804179 0.006615281
0.11449051 -0.16234477 0.23666033 -0.108762175 0.25731567 -0.28913522 -0.28614974 -0.21580476
-0.008146852 0.01578033 0.057939738 0.19058588 0.09661886 0.34258363 0.33504614 0.31249472
-0.2405122 -0.14496918 -0.060368866 0.18928906 0.29647955 -0.028223693 -0.037260205 0.17808571
-0.09486976 0.2266725 -0.31260267 -0.20299423 0.20939437 0.31406823 -0.22684243 0.3022081
-0.2692176 -0.008719116 -0.009109199 0.28539416 -0.2188228 -0.338751 0.1899887 0.2790791
0.028535277 -0.025180072 -0.22870097 0.022000283 -0.05811149 -0.23801932 0.23192236 -0.18062103
-0.27194056 -0.26681215 0.06372839 0.23956731 0.32597062 -0.23586538 -0.22455613 -0.25127938
-0.12746741 0.022160739 0.15666297 0.13090098 0.116123885 -0.06746501 0.15931734 0.1841543
-0.2228077 0.22969708 -0.18693876 0.16341773 -0.020813257 -0.13348429 -0.1027838 0.06597167
0.3471457 -0.33301243 0.20740685 0.15456602 0.17644802 -0.106031656 -0.106436 -0.10258874
-0.20176274 0.15036055 0.29028913 0.101377964 -0.013328463 0.12998101 0.027855724 -0.28869915
0.19289646 -0.19711554 0.0694913 0.075783014 0.042195022 -0.10034233 0.08247954 0.26309052
-0.02523762 -0.34744227 0.24343362 -0.30005538 -0.21896277 0.1094144 -0.2139777 -0.28372926
0.216288 -0.23768622 -0.11910547 -0.16882144 0.2355403 -0.16797462 -0.10998738 -0.079408675
0.14326489 -0.08005643 0.27014932 -0.29976588 0.3154905 -0.105523944 0.18387589 0.041300207
-0.050005347 0.28805944 0.11060491 -0.043951333 0.10857251 -0.06534922 -0.06219399 -0.027272522
0.052924186 -0.18724841 -0.172191 0.34279487 0.039491206 0.23528615 0.0066491663 0.029652923
-0.024069488 -0.025473565 0.2747366 0.0493899 0.3149474 -0.040454835 0.2305437 -0.14341451
-0.28767756 -0.15523763 -0.2551468 -0.04655835 -0.29679626 0.21677491 -0.13898753 0.2707505
-0.25831562 -0.24191962 0.33161744 -0.32708707 -0.12737098 -0.2835981 0.3141698 -0.15657887

lstm.bias_ih_l0 f4 [32]
00000000: f97a a83e 81a0 9340 4424 1741 47ad 403f
00000010: d868 273f 3bea 8b3f 0e62 9840 1b6b 0140
00000020: 604a 623c 7492 0c3e dd26 21be c2f7 a1be
00000030: 2947 68be 7508 ad3e eeef 13be 3201 1bbe
00000040: 709a 2bbe 40e1 b2be b0e2 f6be 20be cdbe
00000050: 787c b63e cce5 a03e 0786 0f3f fc77 983e
00000060: 1a03 2740 48cf 943e 190e 3b3e b3e9 2a40
00000070: 9dfa ce3f 803a 1240 fe61 683f f69f d83e
0.3290632 4.613343 9.446354 0.752644 0.65394354 1.0930856 4.7619696 2.0221622
0.013811678 0.13727742 -0.15737481 -0.31634337 -0.22683395 0.33795515 -0.14446995 -0.15137175
-0.16758132 -0.34937477 -0.48219824 -0.40184116 0.35641837 0.3142532 0.56063884 0.2977904
2.6095643 0.29064393 0.18267097 2.6705139 1.6170231 2.2848206 0.90774524 0.4230954

lstm.bias_hh_l0 f4 [32]
00000000: eff2 b23e d782 8340 b269 1041 37ef 3a3f
00000010: 12c6 003f 6bfc 463f dab3 9440 0ed5 dc3f
00000020: 8ad1 273e 24e1 6dbe 52f1 86be 42ea 5a3e
00000030: 706b afbd 655c 2dbe 6cdf 5dbe 6a87 97be
00000040: 88d9 dc3c dcec 1d3e 9c79 85be 9a83 22bd
00000050: 70c9 c23e 8da6 09be 839a 0c3e 8cbb 883c
00000060: 8cd4 1a40 1bc5 233f 73a7 9f3d 4bb8 1a40
00000070: c791 df3f 247f 1940 d80c 9b3f 6527 403f
0.3495097 4.1097217 9.0258045 0.7302126 0.5030223 0.7772891 4.6469545 1.7252519
0.16388527 -0.23230416 -0.26355988 0.21378425 -0.08565414 -0.16929777 -0.2166726 -0.295955
0.026959196 0.15422386 -0.26069343 -0.039676286 0.3804431 -0.1344244 0.13730817 0.016690992
2.4192228 0.63972634 0.0779561 2.4174984 1.7466363 2.398385 1.2113295 0.7506011

fc.weight f4 [111, 8]
00000000: e846 6abe 8710 3d40 78df 2e40 6c6e b940
00000010: b1e4 cc40 7758 e43f cd43 4c40 7146 a8c0
00000020: 926b b840 c647 e4c0 ecc9 1441 c536 d8c0
00000030: 9433 25c1 3fb9 90c0 622a 6ac1 5b17 15c1
00000040: 31bb 2ac1 fb15 1641 49e5 55c1 adb0 f0c0
00000050: ce54 ec40 b1fb 8ac0 f9d7 a841 d79c 0a41
00000060: c619 52c0 fcc7 b840 8ed5 75c1 62d4 8641
00000070: 31d0 f1c0 fb9e 2241 d746 71c1 1ea8 e640
00000080: 0fa1 60c1 3b6f 4ec1 214c 6641 9c3d 1ec1
00000090: 14b1 5cc1 53d5 d040 c82c 5041 a142 ed40
000000a0: 23b0 6cc0 1e86 2dc0 d9b9 9dc0 97d7 77c0
000000b0: cada 983f 0085 03c0 cf19 9040 088d 8dc0
000000c0: f2ff 5940 b147 99c0 7ddc ba3f cf4b 7d3d
000000d0: 9b4d 503f 8c5e 5940 9399 d6c0 d561 6640
000000e0: ccec 9ec0 8b24 31c0 4198 26c1 f7ad 36c1
000000f0: fd0f 6241 82c2 0a41 13cd 8141 c97e 5541
00000100: 4cbb 91c0 a28b 2d40 c369 a3c0 1432 85c0
00000110: b34b af3f aa7e 76c0 8036 18c0 cfe1 5540
00000120: e84c d4be 0581 8bc0 ae4a db40 803d 1dc0
00000130: dfe9 50c0 0c9d 86c0 d77c 8340 4752 6ac0
00000140: 186c 8bc0 7ec6 a23e 9234 54bf 5ea7 5cc0
00000150: 8af1 99c0 1b2a 5640 427d 3040 18be 87c0
00000160: 9a24 28c0 c3ea 2040 a03a ae40 591e 02c0
00000170: 44c5 e0be 6da1 a7c0 655d babf 9232 fa40
00000180: 1390 84c0 d25d 7240 deb4 5040 dc9a f33f
00000190: 3a2c 8540 d84e 7fc0 0238 ac40 f7b2 2f3f
000001a0: 438e b1bf 23c7 7540 fdaf 83c0 c6a6 12c0
000001b0: 7bbb 8e3d dca5 5240 d51c a5c0 d6a8 5140
000001c0: ac3a a6c0 2919 59c0 18a8 5d40 312f f2bf
000001d0: 496e b13f d883 063f d8ad 8b40 1e21 48c0
000001e0: 33e6 d940 809c 1841 4bdf dfc0 41d0 6841
000001f0: 4d4c 1741 9382 35c1 ba0e 1041 da89 4ac1
00000200: d810 3141 8497 2041 076b 5a41 ae7d fec0
00000210: e21f 8141 b9ab a5c0 a041 4941 5263 efc0
00000220: 024e a0bc e978 2fc1 a480 7bc1 5bf8 10c1
00000230: 2d51 5340 7385 28c1 3071 4941 4d86 7e41
00000240: 1d48 85c0 c2ca 8ac0 273c 903f 69cf c4bd
00000250: 122c bd40 5c5d 81c0 a28b 7bc0 7809 c6bf
00000260: 32a1 9bbe f2e9 9340 5786 01c0 7a7d 6340
00000270: 15ce c240 7270 2840 e97f 8d3f 70f9 9440
00000280: ae5a 74c0 1bb7 5dc0 ee6f 8d40 5d92 43c0
00000290: 12f0 a140 2a84 a940 557e 2cc0 a80c 753f
000002a0: 8421 a4be 855e 96c0 948d 22c0 7487 84c0
000002b0: d265 8ec0 0a0b 5140 4d26 10c0 4172 1cc0
000002c0: 7552 17bf 74c7 7640 1c33 f1bf c523 98c0
000002d0: 3b92 49c0 7b5e ae40 6402 7a40 9478 8940
000002e0: 9a14 5f40 deae 37c1 a57d 2c41 2180 54c1
000002f0: 31df 1a41 dada a0c0 36cc 41c1 6b99 9541
00000300: cf6c 5e41 6fe1 4ac1 b798 2441 ebb2 0d41
00000310: bd53 8241 67c2 04c1 d88f 1f41 47d5 aac0
00000320: 82a0 8bc0 c6a4 aa40 3bcd 983f a857 50c0
00000330: aaec 9e40 d440 b240 f441 5040 a269 0240
00000340: f481 1f41 d02a 7bc1 70ba 3141 de23 68c1
00000350: 430c 11c1 207a 02c1 45dc 6ec0 d061 2f41
00000360: 5b1a d7c0 4828 5441 235d d5c0 a286 b740
00000370: 85f5 7f41 4ab2 afc0 a14e fa3f 72ea 2ac1
00000380: ca42 f93e df57 96c0 82af c23f db20 8840
00000390: 9204 d340 a339 eabf f727 9ec0 58ca 5c40
000003a0: 1f93 4fc0 78c0 a1c0 680b 86c0 3533 42c0
000003b0: 9cc8 8d40 6591 2840 30de 51c0 f3c6 4c40
000003c0: a16c 9ec0 ee46 4dc0 7b3d 59be 1bd8 9040
000003d0: 393a 24c0 0536 b13f 6fb9 81c0 58ed 4e3f
000003e0: 3067 2541 d7ee e940 4774 9e3f a2a6 ddc0
000003f0: fa40 f7c0 e301 3041 1816 3dc1 61b7 9bc1
-0.22878611 2.9541337 2.7323895 5.794729 6.4029164 1.7839497 3.1916382 -5.258599
5.763131 -7.1337614 9.299297 -6.7566857 -10.325092 -4.522613 -14.635347 -9.318202
-10.670701 9.380366 -13.368478 -7.521567 7.385352 -4.343224 21.105455 8.663291
-3.282823 5.774412 -15.364637 16.853703 -7.556664 10.163814 -15.079795 7.208022
-14.039321 -12.902156 14.393586 -9.890041 -13.793232 6.5260406 13.010933 7.4143834
-3.6982505 -2.7113109 -4.9289365 -3.8725336 1.1941769 -2.0549927 4.5031505 -4.4234657
3.4062467 -4.7900014 1.4598538 0.061839875 0.81368417 3.3963957 -6.706247 3.5997212
-4.966406 -2.7678554 -10.412171 -11.417472 14.128903 8.672487 16.225134 13.343453
-4.5541134 2.7116475 -5.1066604 -4.162363 1.3694977 -3.851481 -2.3783264 3.3419073
-0.41464925 -4.3594995 6.852866 -2.4568787 -3.2642744 -4.2066708 4.1089892 -3.6612718
-4.356945 0.31792063 -0.82892716 -3.4477153 -4.8107347 3.34632 2.7576451 -4.241955
-2.627234 2.5143287 5.4446564 -2.0331023 -0.43900502 -5.2384553 -1.4559752 7.818673
-4.142587 3.7869763 3.2610393 1.9031634 4.1616488 -3.9891872 5.381837 0.68632454
-1.387154 3.8402793 -4.115233 -2.291429 0.06969353 3.2913733 -5.1597695 3.27593
-5.194662 -3.3921607 3.4633846 -1.8920652 1.3861781 0.5254493 4.364971 -3.1270213
6.8093505 9.538208 -6.9960074 14.550843 9.456128 -11.344378 9.003595 -12.658655
11.066612 10.036991 13.65113 -7.9528418 16.140568 -5.177212 12.578522 -7.480874
-0.019568447 -10.967019 -15.718906 -9.060634 3.3018296 -10.53258 12.590134 15.907788
-4.165053 -4.3372507 1.1268357 -0.09609873 5.9116297 -4.0426464 -3.9303975 -1.547164
-0.3039642 4.622308 -2.0238245 3.5545335 6.0876565 2.631863 1.105466 4.655449
-3.8180346 -3.4643009 4.4199133 -3.0558083 5.0605555 5.2973833 -2.6952107 0.95722437
-0.3205682 -4.699038 -2.5398912 -4.141535 -4.449929 3.2662988 -2.2523377 -2.4444735
-0.59110194 3.8559237 -1.8843722 -4.7543664 -3.1495502 5.4490333 3.906396 4.295969
3.4856324 -11.480192 10.780675 -13.281281 9.67949 -5.0267153 -12.112356 18.699911
13.901565 -12.6800375 10.287284 8.856181 16.290888 -8.2974615 9.972618 -5.338535
-4.3633432 5.332614 1.1937631 -3.25535 4.9663897 5.5704136 3.2540255 2.0376973
9.969227 -15.697952 11.108017 -14.508757 -9.065494 -8.154816 -3.7321942 10.96138
-6.721967 13.259834 -6.667619 5.7351847 15.997441 -5.490514 1.9555246 -10.682238
0.4868377 -4.6982265 1.5209811 4.2540107 6.594308 -1.8298839 -4.9423785 3.44985
-3.2433546 -5.0547447 -4.1888924 -3.0343754 4.4307384 2.6338742 -3.2791862 3.199643
-4.9507604 -3.2074542 -0.21214859 4.52638 -2.5660536 1.384461 -4.053886 0.8083091
10.337692 7.3104053 1.2379235 -6.926591 -7.7266817 11.000461 -11.817894 -19.46454

fc.bias f4 [111]
00000000: 4bbf 34bf dd57 a0c1 b15d e8c1 d162 f9c1
00000010: 9fb3 13c2 b219 46bf 2cca 123f 22ca d8c1
00000020: 6165 f6be 1de2 3cc0 bae3 823f 0bfb 87bf
00000030: a402 e9bd 383d b83f e86a fa3f 9c75 dcc1
00000040: f2bd ffc1 91aa e5c1 ed99 923f b8c9 c53e
00000050: e47f ae3d fbbc de3f 64bc 39bf 7ad9 05c2
00000060: fce3 f8c1 d2f6 82bf 090f f0c1 dcb2 96c1
00000070: fb29 de3e b712 e7be 433f a93f 8b4e eec1
00000080: 62d8 e6c1 a4c4 c1c1 ac08 9cbe 8eae 1fbe
00000090: ab28 1dc0 e325 fe3e 5927 63bf 95e4 0fc2
000000a0: 80e9 a4bd 6760 7dbf 091d 11c2 62d9 27bf
000000b0: ea18 fbc1 7e5e c23d 15f5 c73e 5bfb 16c2
000000c0: 8e36 e6c1 b0e4 a4bf b1e0 e2bf ab5d 79be
000000d0: 1657 1c40 4b1b ffc1 d872 a63f 693e 2e3e
000000e0: 6893 ea3e 783f c83e 0966 cebd dcb8 863f
000000f0: 32b6 f8c1 8dbf e0c1 112d f23f ab36 5fc0
00000100: 9caa 03c2 ed98 2dbf 56ae 02c0 a54b 8d3f
00000110: d05e dcc1 3512 2b40 6907 05c0 df98 9bbf
00000120: efb0 eac1 7aa5 f13f ba54 b9c1 3d2d a73f
00000130: 84ca 1540 4d21 9f3f f75e ae3f 6ce7 13c2
00000140: c255 eac1 91de 3f40 9d8b f9bf e98c 01bf
00000150: 8133 87be be67 c73e 91af 153f 4915 89bd
00000160: 7500 ebc1 b294 f1bd e252 90bf 99f6 e03f
00000170: be56 0ebe cf99 d2c1 b1e6 1b3f d5cc 16c2
00000180: c577 a340 ba00 0bc0 e44e 5f3f 5537 cac1
00000190: 2f3d 16c1 052c c5c1 96c7 f7c1 ad18 e6c1
000001a0: 6ccf 933d 41ec 00c2 1c24 f8c1 721b e6c1
000001b0: 2f76 c93f 954b 15c2 3af6 fcc1
-0.7060439 -20.042902 -29.045748 -31.17325 -36.92541 -0.7738296 0.5733974 -27.098698
-0.4812422 -2.9513009 1.0225747 -1.0623487 -0.11377457 1.4393682 1.9563875 -27.557426
-31.967747 -28.708284 1.1453224 0.38630462 0.08520487 1.7401422 -0.72553086 -33.46238
-31.11132 -1.0231574 -30.007341 -18.837334 0.43391404 -0.45131466 1.3222431 -29.788351
-28.855656 -24.221016 -0.30475366 -0.15593931 -2.4556072 0.4963828 -0.88731915 -35.973225
-0.08052349 -0.98975223 -36.278355 -0.65566075 -31.387165 0.09490679 0.3905417 -37.745464
-28.776638 -1.288229 -1.772482 -0.24352138 2.4428153 -31.888327 1.3003798 0.17015995
0.45815587 0.39110923 -0.100780554 1.0525165 -31.088963 -28.09353 1.8920003 -3.4877117
-32.91661 -0.6781147 -2.0418906 1.103871 -27.546295 2.6729863 -2.0785773 -1.2156028
-29.336393 1.8878624 -23.16637 1.3060681 2.3404856 1.2432038 1.3622731 -36.975998
-29.291874 2.9979594 -1.9495732 -0.50605637 -0.26406482 0.38946337 0.5847102 -0.06693513
-29.375223 -0.117959395 -1.1275294 1.7575256 -0.13900277 -26.325102 0.6089888 -37.70003
5.1083703 -2.1719193 0.8722975 -25.277018 -9.389937 -24.646494 -30.972454 -28.762049
0.07217297 -32.230717 -31.017632 -28.763401 1.5739192 -37.32381 -31.620228
