NeuralNet.pth (torch, 32663 bytes, 6 tensors)

l1.weight f4 [8, 511]
00000000: 448a ff3f c46d ac3d 6710 bc3d 19c0 e83e
00000010: ff06 a13e 1458 a440 5a57 36bf 7398 3e3f
00000020: 63c1 3dbf 5f3e 9e3f f0a7 a93f df63 13be
00000030: b3e0 f93f c7a8 56c0 dbc0 0dbe 246d 273f
00000040: 2654 bd40 8aab 93bf 8635 1240 d99d 55bd
00000050: baa1 5a40 ac76 143e f8a2 b03e 5706 22bf
00000060: 834f 0d40 953f 9640 b448 5dc0 8876 58bf
00000070: a624 a43f 3ec8 623f c43a 6340 6276 043e
00000080: 6afb ac40 9960 7b40 ebaa 9ebd fbf5 b43f
00000090: b613 15be d711 d7bd acde 83bf 5a3e 77bf
000000a0: 8a98 75bf 533d 163f 4e3f 17bf 4e99 1240
000000b0: a3de 9940 b8c7 4540 742c e73f 1de6 96bf
000000c0: c524 563f 136b 1d41 20a4 84be 8134 d73e
000000d0: 8ac6 6340 3919 02c0 6181 b340 03cd cf3e
000000e0: 1c21 40bf c53a 393f 931c 9ebe 6b89 85bf
000000f0: 704a 8540 73e2 f43f d691 8fbe a7f5 6c40
00000100: 623d 0f3f 88cf 0c40 123f 753f 47f3 4f3f
00000110: 8c41 8f3f 35ae 9ebe 49cb cf3e 926b be40
00000120: 738a 283f 7a74 ac3f b582 d4be d286 873e
00000130: fd81 c53f 309a c940 b63c 24bf 6aec dc3f
00000140: b030 0140 eb63 9ebd 3e6d 2640 56be 77bf
00000150: 7f63 da3e 57f8 ec3f d218 f7bf a99f b4bf
00000160: b306 1bbf c190 acbf e46e fdbe 3f87 1cbe
00000170: 4636 36bf 9853 0e40 e836 54bf 3ec0 9c40
00000180: f722 0240 0192 da3f 6e70 d43f eae7 fcbe
00000190: 618d 4d40 1fd8 a1bd 5bea 92bf e7ff 7940
000001a0: f68c 853f e1b1 a740 4256 c1be 2f1c e3bf
000001b0: 0a8f 0b40 b874 a13f 6751 8abf dedd cc3f
000001c0: 2f96 da3f 9228 0a40 0b6d a140 f808 1340
000001d0: fa12 373f 53c9 0cbe b8c4 30bf d74f e23f
000001e0: feff 273f ab0b 70bd 7a15 21bf ca7e 9dbe
000001f0: 6817 d0bf 4f14 843e 133e 143f ab4d 65c0
00000200: 8d69 1dbf 2998 0b3f 56d9 6fbf 810c 93be
00000210: 6d06 9f3f a70a 1dbf 44ac 73bf df69 8240
00000220: 9eef 9940 d19e a83e ffde 83be 3ead ccc0
00000230: 5eab 8240 ab89 06be 7be0 45bf deb7 97be
00000240: 7e22 8bbf 823b 163c 9bed bc3f e174 cdbf
00000250: 3557 8dbf 7ad2 5f3e fdfd f5be 2db3 94be
00000260: 7090 19bf 8ca6 7640 9d2b 80be 54b8 bc40
00000270: 21fa 973f cbb0 c5be da84 923e 6634 fd40
00000280: a5c1 95bd cb93 4e40 2bed 943f 5750 fc40
00000290: 81e8 2f3f 65bd 13bf 0543 b03f 6ebd 8540
000002a0: f49d 10bf 5990 ae3f f672 9140 5e13 a3bf
000002b0: a075 373e 97c5 09bf a62b 0940 38ff e03f
000002c0: b6d9 86bf ae1c 9fbf 1c95 6a3b fafb d43e
000002d0: d41c 2040 d8dc 9740 c781 42bf ce7f 3d3d
000002e0: bde1 0dc0 488e e43f 1104 e33a 4951 e4be
000002f0: e7c2 3e40 0dbe 8b3f 7bf6 4b3d 647f a7be
00000300: 518a 23be 43ea cabf 8ed2 85bf ac07 103f
00000310: 1f07 bd3e 3981 85bf 3632 8ebf b6ed 0a41
00000320: 95fe 9e3f a54e 923f cc4b 0ebd 46c8 003f
00000330: e26b 453f 69dc 9c3f 4fe1 0641 9a86 5e40
00000340: e63e 0c3e 2287 1dbe 32b8 c13f 0d42 333f
00000350: 290d 9dbf 3974 6bbe 8519 643f 97f3 0c3f
00000360: e853 f03e 7f59 ba40 3121 88be a6c0 ab40
00000370: 89a6 3040 0104 ec3f 4afd df3f 826a b2be
00000380: 7733 c33f 3610 023f d9df 1840 1fe5 c43f
00000390: 6e6a 3140 fd5c 073f 9cbf e4be d31e 83be
000003a0: f8ce d7be f728 fdbe 52a1 e2bf 5450 af40
000003b0: d566 ad3f 07e4 9bbf fa4f b73f 2f77 0c40
000003c0: beba a63f 1857 bc40 61a7 cc3f 2535 1f3f
000003d0: 09e8 63bf 0915 a640 fdbb fe3e 82c8 1fbe
000003e0: 8d02 19c0 2c9c 4440 89b1 a340 13e1 2140
000003f0: 43bd c4bf 3b58 5040 d594 2240 618f 80be
1.996407 0.08419374 0.09182816 0.4545906 0.3145065 5.1357517 -0.7122704 0.7445137
-0.7412321 1.2362784 1.3254375 -0.14393567 1.9521698 -3.3540514 -0.138431 0.6540091
5.916522 -1.1536725 2.2845168 -0.05215249 3.416121 0.14498395 0.34499335 -0.63290924
2.207978 4.6952615 -3.4575624 -0.84555864 1.2823684 0.88586795 3.5504618 0.12935784
5.40569 3.9277709 -0.07747444 1.4137567 -0.145583 -0.105014496 -1.0302329 -0.96579516
-0.9593588 0.58687323 -0.5908097 2.290607 4.8084273 3.0903149 1.8060441 -1.1788975
0.83649856 9.838641 -0.25906467 0.42032245 3.5589929 -2.0327895 5.6095433 0.405861
-0.7505052 0.723553 -0.30881175 -1.0432562 4.1653366 1.9131607 -0.28040951 3.7024934
0.5595304 2.2001667 0.9579936 0.81230587 1.1191878 -0.30992284 0.40584782 5.950631
0.65836257 1.3473046 -0.41505972 0.26470047 1.5430294 6.3000717 -0.6415514 1.7259648
2.0185966 -0.077339016 2.6004176 -0.96774805 0.42654034 1.8513287 -1.930445 -1.4111224
-0.605571 -1.3481675 -0.49498665 -0.15285967 -0.71176565 2.2238522 -0.8289628 4.898467
2.033384 1.7075807 1.6596811 -0.49395686 3.211754 -0.0790255 -1.147777 3.906244
1.0433643 5.2404637 -0.37761122 -1.7742976 2.1806054 1.2613745 -1.0806092 1.6005208
1.7077082 2.1587262 5.044561 2.2974224 0.7151333 -0.13748674 -0.6905017 1.7680615
0.6562499 -0.058604877 -0.62923396 -0.30760795 -1.6257143 0.25796744 0.5790722 -3.5828655
-0.6148918 0.5452905 -0.93691003 -0.28720477 1.2423836 -0.6134438 -0.9518473 4.0754237
4.8105 0.32933667 -0.2575607 -6.3961477 4.083419 -0.13138454 -0.77295655 -0.29632467
-1.0869901 0.009169461 1.4760011 -1.6051294 -1.1042238 0.21857634 -0.4804534 -0.2904295
-0.5998602 3.8539152 -0.25033274 5.897501 1.1873208 -0.38611445 0.28616983 7.9126463
-0.073123254 3.2277706 1.1634878 7.884807 0.6871415 -0.5771087 1.3770453 4.1793737
-0.5649102 1.3637801 4.5452833 -1.2740285 0.17915964 -0.53817123 2.143289 1.7577887
-1.053519 -1.2430627 0.0035794443 0.41598493 2.5017595 4.7457085 -0.75979275 0.046264462
-2.216903 1.7855921 0.0017319937 -0.44593266 2.980646 1.0917374 0.04979561 -0.3271438
-0.15970732 -1.5852741 -1.0454881 0.56261706 0.36919495 -1.0430061 -1.1109073 8.683035
1.2421442 1.143025 -0.034740254 0.50305593 0.7711774 1.2254764 8.430007 3.4769654
0.13695869 -0.1538358 1.5134337 0.7002266 -1.2269641 -0.22993554 0.8910144 0.5505919
0.46939015 5.823425 -0.26587823 5.3672667 2.7601645 1.8438722 1.7499173 -0.34846884
1.5250081 0.50805986 2.3886626 1.5382422 2.772121 0.52876264 -0.44677436 -0.25609455
-0.42150092 -0.49445316 -1.7705481 5.4785557 1.3547007 -1.2178963 1.4321282 2.1947744
1.3025739 5.8856316 1.598858 0.6219047 -0.8902593 5.190068 0.497528 -0.15603831
-2.3907807 3.072032 5.115422 2.5293624 -1.5370258 3.2553852 2.540334 -0.2510939

l1.bias f4 [8]
00000000: 2508 713f 4d74 823f f69d 683f 7d5d 903e
00000010: bb74 673f ec1a e93e a72f 813f 5153 303f
0.9415305 1.0191742 0.9086603 0.28196326 0.9041249 0.45528352 1.0092667 0.6887713

l2.weight f4 [8, 8]
00000000: 267c 36be 70fb a43f b039 8b3d 4ad4 01bf
00000010: 7f9c f9bf b04f de3f 57f3 d13e f840 2c3e
00000020: b1ea bdbe 14ff 1dbe 2767 583e 6f5a 1140
00000030: cef4 13bf 5e68 823e 3ebb 833f 7f73 9c3f
00000040: 2660 2abf 0aff a03f 174b 1abf 8857 cebe
00000050: 0402 883f bcdf 883f 4fc2 dd3d 7592 20be
00000060: 4553 51bf beed 8b3e 0ade 933f 3ddd 0f3f
00000070: d44a 033f 211f 033e c23d 24c0 f793 1340
00000080: 1f4e 623e 5ba2 dd3f 8a1e 283f 64dd 633f
00000090: 376b dd3d dc9f 49bf 6da6 95bf fd91 b6bf
000000a0: ca12 3940 f9cf d2be 21cf 21c0 ebae 343f
000000b0: 552d e23d fdc8 ea3d 1ddd adbe 91d1 553f
000000c0: 2da1 0240 b3c2 00be 3b7e df3f 9f55 b2bf
000000d0: d552 1e3f 2013 e2bd cac9 9a3f ebbf 0cbf
000000e0: 89d4 a6be 6c09 adbf fa00 c03d 2db5 523f
000000f0: 3f2a ce3f c72e b73f 3032 5d3e 29b4 a2bf
-0.17820796 1.2889233 0.067981124 -0.5071455 -1.9500884 1.7368069 0.41005966 0.16821659
-0.37093118 -0.15429336 0.211331 2.2711446 -0.5779542 0.2547025 1.0291517 1.2222747
-0.6655296 1.2577832 -0.6027083 -0.40301156 1.0625615 1.0693278 0.10828077 -0.15680869
-0.81767684 0.2732982 1.1552136 0.5619696 0.51286054 0.12804843 -2.5662694 2.305906
0.22100113 1.7315172 0.656716 0.8900969 0.10811465 -0.7875955 -1.1691414 -1.4263302
2.8917718 -0.41174296 -2.5282671 0.70579404 0.11043803 0.11464117 -0.3395776 0.835229
2.0410874 -0.12574272 1.7460397 -1.393238 0.6184514 -0.11038804 1.2092831 -0.54980344
-0.32584026 -1.35185 0.09375186 0.823077 1.6106642 1.431115 0.21601176 -1.271123

l2.bias f4 [8]
00000000: c305 4c3f 2ed8 03c0 dea2 a2bf 0445 0dbf
00000010: c5f2 b33f 51b8 083f 5b9f 67bf 2a2b 073e
0.7969629 -2.0600696 -1.2705953 -0.55183434 1.4058462 0.53406245 -0.9047753 0.1320006

l3.weight f4 [111, 8]
00000000: 93df 583f ac22 4ebf 3871 c83e a946 e3be
00000010: 4284 d8bf 52c1 84c1 4337 72bf 9a71 6cc1
00000020: 6141 0dc1 576f 9c3f 75a0 32c1 97ac 813f
00000030: 7dbe f3c0 c72e 85bf 5f8f d5be cc92 33c1
00000040: 638e 48c0 2547 92c1 b402 e83f 5147 bdbf
00000050: 0ef9 dc3f 3696 efc0 52a6 edbe 012e 37c1
00000060: 32c5 75c1 f50c 00c1 2cf3 39c0 3e5a d23e
00000070: 3a56 bbbf 5bf1 c63f 2854 4abf d531 82c1
00000080: 6408 bcbf 6406 bdbe a48e 91c1 0cc5 e63f
00000090: b23d 59c1 093d 483f 03f1 7ac1 79ef a7c1
000000a0: 966d d93d a5ae 883f 067e 89c1 5d5d 44bf
000000b0: e888 a4be d034 70bf 112c bcbf 78ca e5bf
000000c0: c7f9 02c2 481b b3bf a7fd a9bf 8fe9 093f
000000d0: 254c 6e3f 76bf fe3e 625f 54bf d819 01bf
000000e0: 6995 2ac1 8b6a 75c1 ecb5 d1c0 d179 b9c0
000000f0: 97eb 993f 3df7 073f ef22 ea3e 5764 12c1
00000100: 7081 b7be 0446 a4bd 1370 fcbe cd2f 443f
00000110: 98b8 c1be 8daa bfc1 290c 19bf b8c3 12c0
00000120: d629 853e 8267 363f 20cf 5fc0 0e35 3ebc
00000130: d4af 0ac0 1e6e d23d 9543 5cc1 6895 86bf
00000140: 9ff9 973f 9a26 183e 9684 b1bf 6083 fcbd
00000150: fbfb a8c1 5a9f 10bf ab96 acbf acd4 35bf
00000160: c359 47bf 8e2d 58be 2283 133f df1d 05bf
00000170: f37a 2fbf f525 8bc0 e7c4 c9bd 83cb 45bf
00000180: 7203 2bbe 0a15 85be 553a 9fbf 7d85 4fbf
00000190: 5ed7 ce3f 3a2c 0fc2 d87d 8fbf a203 38c0
000001a0: cae2 173f 1358 fabe 423e b1bf ff1f c9c1
000001b0: a407 193e 6844 87c0 1aea 353e bd9d 5bbf
000001c0: 70ee 503f 6837 e53e 4d3b 5bc0 974d 98be
000001d0: bc3e 133e 1d8d d1bf 451d 48bf 6661 0dc0
000001e0: eaeb b0c0 912c 143f b419 2bc1 f8e2 7f3e
000001f0: 513b 45c1 d372 c4c1 4b9d 233f b63a a0c0
00000200: 0f21 f4be d54b 963f 1e90 b2bf 703a 5ac1
00000210: 7f10 81c1 c1f0 3cbd 678e 6bc0 0003 713f
00000220: dd7b 6a3f a493 4ac0 eb97 bcbf 61e3 b8be
00000230: 725b 60c0 48b9 803f 7e7c 0f3c 918a b3c1
00000240: 8cf1 ff3e b48e 0dc0 1e4c 21c2 ad0d 623e
00000250: 211f 84be 8b0a a8bd ab71 293e 027e c7bf
00000260: 5f9a 1fbf 7964 6abf bcfd 5fc2 bd90 92c1
00000270: d530 19bd fed0 58c0 90e3 033f 1cf2 7c3e
00000280: cb22 4c3f dd22 133e ae7d 2cc0 1ad1 ca3d
00000290: b2f0 28bf 2206 68c1 2baf d4bd daea 05c2
000002a0: 50f7 323d b81b e2be c0a6 fbc0 b691 563f
000002b0: d141 31bf 8790 cabc 5c9d 9abf 5e74 0ebf
000002c0: dfc8 c9c1 c2f9 dac0 1370 a2c1 8d76 19c0
000002d0: 836b 173f f7c7 7f3f c48d abbe 8cf3 443f
000002e0: e484 c7c0 8b55 31c1 043d c7c1 49b9 b9c1
000002f0: cb1c 29c1 65fd 7e3f 98c2 583f 1cc5 72bf
00000300: 83f2 99c0 4c43 0fc1 982d 3e3f de91 a9be
00000310: 0a9d e1bf e416 1cc1 620f a33f fa7c e2be
00000320: a008 87c0 b8cf abbe 6a99 85bf 7f01 c03f
00000330: fa01 453f 3c0a afc1 30d9 94bf 70c1 7ec1
00000340: d14b 50bf 01a3 62bf b0ff d5bf b1f1 53c0
00000350: 1aac 94c1 2bc9 0f40 bdc9 1dbf af3e a5c0
00000360: 95de c33a 123f 493f 8f04 57c0 7ec4 613f
00000370: f10d f03e cfdb f6bf 3fd0 4bc1 39c5 3fc1
00000380: e5b0 a2c1 0813 09c0 3222 c3be 7f9b cfbd
00000390: b3b4 db3e 9ca8 08be 1b16 d23e d956 12bf
000003a0: 647c 0d3f c057 6cc1 0a65 c3bf 1ec7 afc1
000003b0: bd36 133f a155 5ebf f89f fd3d b734 a4c1
000003c0: 17b5 fc3b 4ca2 cfbe 6692 15be 02cb bbbe
000003d0: 0721 f6be d50d 403f 7c87 fcbf 98bd 9bbf
000003e0: 0a38 d33f e96d e7bf 873d 4ec0 b8db c3c1
000003f0: 26fe cfc1 f32e f0bf e735 eb3e e42c d53c
0.8471615 -0.80521655 0.3914888 -0.44389847 -1.6915362 -16.594395 -0.9461557 -14.777735
-8.828462 1.2221478 -11.164174 1.0130795 -7.617003 -1.04049 -0.41710946 -11.223339
-3.1336906 -18.284739 1.8125825 -1.4787389 1.7263505 -7.4870863 -0.46415955 -11.448731
-15.360643 -8.003163 -2.905467 0.41084474 -1.4635689 1.5542406 -0.7903466 -16.274332
-1.4690061 -0.36918938 -18.194649 1.8028884 -13.577562 0.7821813 -15.683841 -20.99193
0.10616605 1.0678297 -17.186535 -0.7670496 -0.321357 -0.93830585 -1.4700948 -1.7952414
-32.743923 -1.39927 -1.3280534 0.5387201 0.9308494 0.49755448 -0.8295804 -0.5043006
-10.661477 -15.338511 -6.5534573 -5.79612 1.2025021 0.5311163 0.45729777 -9.149497
-0.3584094 -0.08021167 -0.49304256 0.7663544 -0.37836146 -23.958277 -0.5978418 -2.2931957
0.2600848 0.7125169 -3.497017 -0.011609329 -2.1669817 0.102749094 -13.7664995 -1.0514345
1.1873053 0.14858475 -1.3868587 -0.12329745 -21.123037 -0.5649315 -1.348348 -0.71027637
-0.7787134 -0.21111128 0.5762197 -0.51998705 -0.6854698 -4.3483834 -0.09852009 -0.7726366
-0.16700533 -0.25992614 -1.2439677 -0.8106306 1.6159475 -35.79319 -1.121028 -2.8752217
0.5933043 -0.4889532 -1.3847125 -25.140623 0.14944321 -4.2271004 0.17765084 -0.85787565
0.81613827 0.44768834 -3.4254944 -0.29746696 0.143794 -1.6371189 -0.7816966 -2.2090697
-5.528798 0.578805 -10.693775 0.24988925 -12.326982 -24.556067 0.63911885 -5.007167
-0.47681472 1.1741892 -1.3950231 -13.639267 -16.133055 -0.04612804 -3.6805665 0.941452
0.9159525 -3.1652613 -1.4733862 -0.36110976 -3.5055814 1.0056543 0.008757709 -22.44266
0.49988973 -2.211835 -40.324333 0.2207553 -0.25805 -0.08205136 0.16547267 -1.558533
-0.62344927 -0.9155956 -55.997787 -18.320673 -0.037400085 -3.3877559 0.5151911 0.24701732
0.7974059 0.14368768 -2.6951709 0.09903164 -0.6599227 -14.501497 -0.10384973 -33.479347
0.043692887 -0.44161773 -7.864105 0.8381609 -0.6924105 -0.02472712 -1.2079272 -0.5564631
-25.223082 -6.842988 -20.304724 -2.3978608 0.59148425 0.999145 -0.33506596 0.76934123
-6.234972 -11.0833845 -24.904793 -23.215471 -10.56953 0.996054 0.84671926 -0.94832015
-4.8108535 -8.95393 0.7428832 -0.331191 -1.762605 -9.755589 1.273907 -0.44235975
-4.219803 -0.33556914 -1.0437443 1.5000457 0.7695614 -21.879997 -1.162878 -15.922226
-0.81365687 -0.88529974 -1.6718655 -3.3116267 -18.584034 2.2466533 -0.61635953 -5.163902
0.0014943654 0.7861186 -3.3596532 0.8819045 0.46885636 -1.928583 -12.738341 -11.98565
-20.336374 -2.1417866 -0.38112026 -0.101370804 0.429113 -0.1334557 0.4103249 -0.5716377
0.5526793 -14.771423 -1.526521 -21.972225 0.575054 -0.8684941 0.12384027 -20.52574
0.0077120173 -0.4055351 -0.14606628 -0.3667832 -0.48072073 0.75021106 -1.9728847 -1.2167234
1.6501477 -1.8080417 -3.2225053 -24.482285 -25.999096 -1.8764328 0.45939562 0.026022382

l3.bias f4 [111]
00000000: de4d 11bf 9aaf f3bf 359c acc0 726a 5fc0
00000010: df63 afc0 8132 7d3e 7a52 6fbf 0f10 18c0
00000020: 3699 03c0 30fe fcbf a833 cc3e f674 c3bf
00000030: ba3e b6bd dd3f 24be 7f04 8e3f 2c1b 97be
00000040: ff6b b3c0 4d8d c7c0 ac3a a63f 1f8f ecbc
00000050: 52c8 513d 49aa 5a3e 4f9f 433f 8b7d 49c0
00000060: c5e3 d0c0 7bf1 1c3f 7ac1 d4c0 9ccd e9c0
00000070: 56b9 2cbe f036 5abf e902 a4bf 6aef 9ec0
00000080: f1f9 c23f 943d c7c0 15d8 023f 2032 d23c
00000090: 6bea 5f3f 14a5 92bd 45ca 24bf 7e1b 92c0
000000a0: be48 eabf c6ee a2bd cfab b0c0 e386 1f3f
000000b0: e161 08c1 df88 9ebe 34e8 503c ec37 9ec0
000000c0: acc6 f5c0 f18f dfbb ab89 373e ebeb 01c0
000000d0: 5a8e d93f dce2 24bf 9357 2bbf 525b e2bd
000000e0: 612f 2a3f 439b 7d3f 483c 99be 61f6 0e3f
000000f0: 2717 e0c0 3a13 4cbf f834 0bbe b5d4 a53d
00000100: 42c7 c7bf 7335 283e 6f2a 02be 952e 963f
00000110: 27a5 3fc1 2849 953e ba76 80bf 0892 c7bf
00000120: fa9a 6ac0 123b b7be 915a 5ec0 c250 673d
00000130: 052d 263f 13b0 d53f e2a4 c9bc 6613 bcc0
00000140: ad2a 62c0 9b95 6a3f a050 cfbf 536d d83c
00000150: cd0b 70bf 5a52 82bf fbc7 e23e c668 0d3d
00000160: 24fd d1c0 238b 463d abe8 28be 15b1 c4bf
00000170: ed25 6b3f 2200 0fc0 796c 08c0 fc35 e1c0
00000180: 704b c93f dc76 c23f bae6 24bf 9ae5 30c0
00000190: 4e41 abbf 73e3 02c1 8424 2fc0 cee0 6bc0
000001a0: e9d5 7ebd 1fdc 04bf cabc 84bf 7d72 a1c0
000001b0: a950 8fbf 264e 07c0 7433 29bf
-0.5675944 -1.9037964 -5.3940682 -3.490872 -5.4809413 0.24726297 -0.93485224 -2.3759801
-2.0562263 -1.9765072 0.3988316 -1.5270069 -0.08898683 -0.16039987 1.1095122 -0.29512918
-5.606933 -6.2359986 1.2986655 -0.02887684 0.05121643 0.21354021 0.7641496 -3.1482875
-6.527804 0.6130597 -6.6486177 -7.306349 -0.16867575 -0.8524008 -1.2813388 -4.9667253
1.5232526 -6.226267 0.51110965 0.025658667 0.8746707 -0.071603924 -0.6437114 -4.565856
-1.8303449 -0.07955699 -5.5209727 0.62315196 -8.523896 -0.309638 0.012750674 -4.9443264
-7.680502 -0.006822579 0.1792361 -2.0300243 1.6996567 -0.6440866 -0.669305 -0.11052574
0.66478544 0.99065036 -0.29928803 0.55844694 -7.002826 -0.7971684 -0.13594425 0.08097211
-1.5607684 0.1642664 -0.127115 1.1732966 -11.97782 0.29157376 -1.0036232 -1.559144
-3.665709 -0.35787255 -3.4742777 0.0564735 0.64912444 1.6694359 -0.024614755 -5.877368
-3.5338547 0.9163453 -1.619648 0.026419317 -0.93768007 -1.0181382 0.44293198 0.034523748
-6.562151 0.048472535 -0.16495006 -1.5366541 0.91854745 -2.234383 -2.1316206 -7.03784
1.5726147 1.5192523 -0.6441456 -2.7640138 -1.3379304 -8.18053 -2.7366037 -3.685596
-0.06221572 -0.5189838 -1.0370114 -5.0452256 -1.119649 -2.1141448 -0.66094136
