RNN.pth (torch, 259039 bytes, 4 tensors)

i2h.weight f4 [8, 519]
0	0xbaecd240	-0.001806803
1	0x3ca3fd36	0.020018201
2	0xbc62cc06	-0.013842588
3	0x3ce8b5ca	0.028406996
4	0x3b74c770	0.003735032
5	0x3b5641c0	0.0032692999
6	0x3bf1ee58	0.007383149
7	0xbcc4687a	-0.0239756
8	0xbc869fa8	-0.016433552
9	0x3cced64e	0.025248673
10	0x3d10d2cf	0.035357293
11	0x3c343c40	0.011000693
12	0xbbcf5ff8	-0.006328579
13	0x3c913d9c	0.017729573
14	0xbce550be	-0.027992602
15	0x3d036e75	0.032087762
16	0xbb680250	-0.003540177
17	0xbd300798	-0.042975992
18	0xbd1f2dbe	-0.038861983
19	0x3c9dc2f6	0.019258004
20	0xbd0e1b26	-0.03469386
21	0xbb8dcab0	-0.0043271407
22	0xbc0b18e4	-0.008489821
23	0x3b45c1c0	0.0030175298
24	0xbd2a1588	-0.04152444
25	0x3ccc8806	0.024967205
26	0x3b946118	0.004528176
27	0x3d112c3d	0.03544258
28	0xbcde4394	-0.027131833
29	0x3c9797ba	0.018504966
30	0xbc07afd8	-0.0082816705
31	0xbcbcb15c	-0.02303379
32	0xbc1bc628	-0.009507693
33	0x3bc15398	0.0058998577
34	0xbc9eeb55	-0.019399324
35	0x3d07ce09	0.033155475
36	0xbcef2ff6	-0.029197674
37	0x3b9f9880	0.0048704743
38	0x3cfb1d96	0.030653756
39	0x3b446a80	0.0029970706
40	0x3c86e616	0.016467135
41	0x3c191e50	0.009345606
42	0x3d1f1361	0.03883684
43	0xbd1f8ce4	-0.038952723
44	0xbce3de3f	-0.027815936
45	0x3d029405	0.031879444
46	0x3c4ff308	0.0126922205
47	0xbd237a94	-0.03991182
48	0x3d2241a7	0.039613392
49	0x3cee4436	0.02908526
50	0x3cd8493e	0.026402112
51	0xbb512810	-0.0031914748
52	0xbbf77518	-0.0075518005
53	0x3d081853	0.033226322
54	0xbcee20b0	-0.029068321
55	0x3d00a2cf	0.031405266
56	0x3b263330	0.00253601
57	0x3d1053d1	0.035236184
58	0x3cc6efe6	0.024284314
59	0x3c31b144	0.010845486
60	0x3d127515	0.03575619
61	0xbce31047	-0.027717723
62	0x3d315427	0.043293145
63	0x3cec0e66	0.02881546
64	0x3ce77c86	0.02825762
65	0x3cb60ed2	0.022223864
66	0xbc92e702	-0.017932419
67	0xbc8daafd	-0.017293448
68	0xbd22e326	-0.039767407
69	0xbcdc17db	-0.026866844
70	0x3d1c87b7	0.038215365
71	0x3c5ecf10	0.013599172
72	0xbb9151c0	-0.004434794
73	0xbd2c542e	-0.042072468
74	0xbb8ac240	-0.004234582
75	0xbcef83a0	-0.029237568
76	0xbd230cd0	-0.03980714
77	0xbd1260c0	-0.0357368
78	0x3d2ae8c9	0.041725907
79	0xbd2f43fb	-0.04278944
80	0xbd320202	-0.043458946
81	0x3cb98e8e	0.022650983
82	0xbd29c883	-0.04145099
83	0x3a39b880	0.00070846826
84	0xbb540be0	-0.003235571
85	0x3d32c2ab	0.04364268
86	0xbbd87920	-0.006606236
87	0x3d207515	0.039174158
88	0x3d01e621	0.03171361
89	0x3c1f1d40	0.009711564
90	0xbcb99ae3	-0.022656864
91	0xba6e5300	-0.00090913475
92	0x3d2010cb	0.039078515
93	0x3cef877e	0.029239412
94	0x3b565200	0.0032702684
95	0x3c913142	0.017723683
96	0xbcb42404	-0.02198983
97	0x3c8d16cc	0.017222784
98	0xbbef37c0	-0.007300347
99	0x3b04b8b0	0.0020251684
100	0xbd07da4e	-0.033167176
101	0xbce44504	-0.02786494
102	0xbb211250	-0.0024577565
103	0x3b530aa0	0.0032202378
104	0xbcc65e17	-0.024214787
105	0xbbfb6510	-0.0076719597
106	0xbd17e1aa	-0.037080444
107	0x3c6cdae4	0.0144564845
108	0x3cd27fba	0.02569567
109	0xbc2c7234	-0.010525275
110	0x3d1e159f	0.03859484
111	0xbd25335f	-0.040332194
112	0x3c241738	0.010015301
113	0x3cb23e3a	0.021758188
114	0xbc37ade8	-0.011210896
115	0xbbac3638	-0.005255487
116	0xbcf35d4a	-0.02970757
117	0xbb45f880	-0.0030207932
118	0xbc65fc72	-0.014037238
119	0xbce5596c	-0.027996741
120	0x3cde7e6a	0.027159888
121	0x3adcb4e0	0.0016838573
122	0xbc882e56	-0.016623657
123	0xbd2f4263	-0.04278792
124	0xbc76b406	-0.015057569
125	0xbc809d90	-0.015700132
126	0xbd302d77	-0.04301211
127	0xbbbd4fe8	-0.005777348
128	0xbb845848	-0.0040388443
129	0xbbc89458	-0.0061211996
130	0xbd0324b2	-0.032017417
131	0x3c6af76c	0.014341217
132	0x3d269021	0.040664796
133	0xbd0e378c	-0.034720942
134	0xbc92a1bb	-0.017899385
135	0xbaff5140	-0.001947917
136	0x3c8b0c0e	0.016973522
137	0xbc5ae340	-0.013359845
138	0xbc9258e9	-0.017864661
139	0x3ca3cbea	0.019994695
140	0xbba28010	-0.004959114
141	0x3cbeac6a	0.023275573
142	0x3b46bdd0	0.003032554
143	0xbd120c84	-0.035656467
144	0x3d1cf7eb	0.03832237
145	0x3cf33546	0.029688489
146	0xbcc6d1a4	-0.024269886
147	0x3c8f094c	0.017460488
148	0x3cceb942	0.025234822
149	0xbccb5c64	-0.024824329
150	0xbcb05240	-0.021523595
151	0x3d1d31c9	0.038377557
152	0x3c910954	0.017704643
153	0x3cb1279e	0.021625336
154	0x3ce91c02	0.028455738
155	0x3cad3af2	0.021146271
156	0xbcf1641c	-0.029466681
157	0xbbc35590	-0.0059611276
158	0xbd2e9883	-0.042625915
159	0xbd0c9ebb	-0.034331065
160	0x3d22359b	0.039601903
161	0xbd024f8c	-0.031814143
162	0x3cd1c226	0.025605273
163	0x3ce842ce	0.028352167
164	0xbc9e3f90	-0.019317418
165	0x3b9642f0	0.0045856163
166	0xbc7c8f70	-0.015415058
167	0xbc9dff2b	-0.019286713
168	0xbcc90e28	-0.024542883
169	0xbc9bd63b	-0.019023051
170	0x3cf475da	0.029841352
171	0x3ba919a0	0.0051605254
172	0x3c863f2c	0.016387545
173	0x3d1497ef	0.036277708
174	0xbb93a4f8	-0.00450575
175	0x3989f000	0.0002630949
176	0x3c005620	0.007833034
177	0x3c725a48	0.014792033
178	0xbd1f1dcd	-0.03884678
179	0xbba1aac0	-0.004933685
180	0xbc6b2524	-0.014352117
181	0x3c9be8c2	0.019031886
182	0xbd24109c	-0.040054902
183	0x3c115934	0.008871365
184	0xbcdbbc06	-0.026823055
185	0xbc9b3f87	-0.01895119
186	0x3cb4449a	0.022005368
187	0xbd069ae4	-0.03286256
188	0xbbfe2a60	-0.0077565163
189	0x3c5a9754	0.0133417435
190	0x3b87a7d0	0.004139878
191	0x3c0f80ac	0.008758705
192	0xbba6c948	-0.0050899126
193	0xbd1c2dad	-0.038129497
194	0xbae0a620	-0.0017139353
195	0xbd11f60e	-0.035635047
196	0x3b3289b0	0.0027242713
197	0x3a3ca600	0.0007196367
198	0xbd1c9153	-0.03822453
199	0x3d219359	0.039447162
200	0xbcfe0034	-0.031005956
201	0x3ce73bc2	0.028226737
202	0x3d03a2eb	0.032137793
203	0x3d03f83b	0.032219153
204	0x3c875a52	0.01652256
205	0xbd21e987	-0.03952935
206	0x3c31fae8	0.010863043
207	0xbd0aba6c	-0.033869192
208	0xbc2bd060	-0.010486692
209	0x3d072757	0.0329965
210	0x3c517034	0.012783099
211	0xbd18ab5f	-0.037272807
212	0x3c7be434	0.015374232
213	0xbc864541	-0.016390445
214	0x3d18e2c9	0.037325654
215	0xbcc40837	-0.023929698
216	0xbbd8ee70	-0.006620221
217	0xba184500	-0.00058086216
218	0xbcd20cf0	-0.025640935
219	0xbbf85f48	-0.007579718
220	0xbc48cfb8	-0.012256555
221	0x3d32c4c9	0.0436447
222	0x3cff81c6	0.03118981
223	0x3c919f04	0.01777602
224	0xbd13f68d	-0.0361238
225	0xbd1e15e5	-0.0385951
226	0x3c6e1658	0.014531694
227	0x3b4137c0	0.0029482692
228	0x3c74630c	0.014916193
229	0x3d0c369d	0.03423177
230	0xbc3b13c8	-0.01141829
231	0x3d26e64d	0.040746976
232	0xbbb20bf8	-0.0054335557
233	0xbcbfeeba	-0.023429263
234	0xba788180	-0.0009479746
235	0x3c0ece08	0.008716114
236	0xbd20d5ba	-0.039266326
237	0xbd24512d	-0.040116478
238	0x3cc3ba6a	0.0238926
239	0xbc93fd21	-0.018065037
240	0x3cee84a6	0.029115986
241	0xbce6fa67	-0.028195573
242	0x3d1f6cd1	0.038922135
243	0x3cd4d1ee	0.025979009
244	0x3d2df7c1	0.042472605
245	0x3c6651d8	0.014057599
246	0xbcaa7d7a	-0.020811785
247	0x3d31271f	0.0432502
248	0xbc30e9f8	-0.01079797
249	0x3d1a689f	0.03769743
250	0xbd0f72f2	-0.03502173
251	0x3cac19da	0.02100842
252	0x3cbe5f3e	0.023238774
253	0x3c5a6148	0.013328858
254	0xba3f8e80	-0.0007307306
255	0x3c52a060	0.012855619

i2h.bias f4 [8]
0	0xba1f5e80	-0.000607945
1	0xbc6e3e5a	-0.014541233
2	0x3b8248f0	0.00397598
3	0x3bed0720	0.0072335154
4	0x3c82e1d8	0.015976831
5	0xbc67ed14	-0.014155645
6	0x3ce1ca4a	0.02756228
7	0xbc9b9625	-0.018992493

i2o.weight f4 [111, 519]
0	0xc0106d48	-2.25667
1	0xc0221259	-2.5323699
2	0xc020fa74	-2.5152864
3	0xbf25aacd	-0.64713746
4	0xc05143d3	-3.2697647
5	0xc02f8ba3	-2.7428977
6	0xc0f469da	-7.6379213
7	0xc08f53fb	-4.4790015
8	0xc0a086c0	-5.016449
9	0xc103afe7	-8.230445
10	0xc083cbb5	-4.1186166
11	0xbe80251f	-0.2502832
12	0xc0956745	-4.668856
13	0xc11a8861	-9.658296
14	0xbfbc4e03	-1.4711307
15	0xbf767c53	-0.96283454
16	0xbe8a48a8	-0.27008557
17	0xc069f962	-3.655846
18	0xc05f9479	-3.493437
19	0xc0038265	-2.0548337
20	0xc01643ca	-2.3478875
21	0xc1646227	-14.273963
22	0xc0d29612	-6.580819
23	0xbfeed413	-1.865847
24	0xc03df8e8	-2.968317
25	0xc02a5360	-2.6613388
26	0xc015e5b0	-2.342144
27	0xbf41269e	-0.7544955
28	0xc0856041	-4.1679997
29	0xc039499c	-2.8951178
30	0xc034674e	-2.8188052
31	0xc0514445	-3.2697918
32	0xc05dfe4e	-3.4686465
33	0xc073e856	-3.8110557
34	0xc0043ebc	-2.066329
35	0xc00241e6	-2.0352721
36	0xbf9187be	-1.136955
37	0xc10469bd	-8.275815
38	0x40ffffbd	7.999968
39	0xbfd9f304	-1.7027287
40	0xc01209dd	-2.281852
41	0xc15c15f9	-13.755364
42	0xc02a01d9	-2.6563628
43	0xc119ca47	-9.611884
44	0xc0e55f25	-7.1678643
45	0xc08408a0	-4.126053
46	0xc0a71af9	-5.2220426
47	0xc1719b94	-15.100483
48	0xc0dbeadd	-6.87242
49	0xc0df82c4	-6.9847126
50	0xc0d53258	-6.6623955
51	0xc079dce6	-3.9041076
52	0xbfba44bc	-1.4552226
53	0xc02b36fe	-2.6752315
54	0xc033212b	-2.7988994
55	0xc0f478fa	-7.6397676
56	0xc0354326	-2.8322234
57	0xc018edde	-2.3895183
58	0xc100c04f	-8.04695
59	0xc16e73e3	-14.903293
60	0xc06a4391	-3.660374
61	0xc0086751	-2.131306
62	0xbee3e609	-0.4451144
63	0xc0822d4e	-4.0680304
64	0xbf87c081	-1.0605623
65	0xc1184247	-9.516181
66	0xbf27ddaa	-0.6557261
67	0xbf8217f2	-1.0163558
68	0xbfdc3953	-1.7204994
69	0xc05dbc58	-3.4646206
70	0xc0ce9ee4	-6.456896
71	0xc0277a3d	-2.6168358
72	0xc17ce30f	-15.805434
73	0xc0746d9c	-3.81919
74	0xbfc9c6c9	-1.576379
75	0xc074c6df	-3.8246381
76	0xc016a913	-2.3540695
77	0xbf45c06a	-0.77246726
78	0xc161820b	-14.094249
79	0xbf3754d8	-0.71613836
80	0xbf284d90	-0.6574335
81	0xc0988994	-4.766794
82	0xc11b4841	-9.70514
83	0xc0c49dd2	-6.144265
84	0xc1845569	-16.541704
85	0xc0eaf191	-7.341988
86	0xbfb68f48	-1.4262476
87	0xc15c366b	-13.763286
88	0xbfc521b8	-1.5400915
89	0xbfca48eb	-1.5803503
90	0xc09909e7	-4.782459
91	0xc00ed275	-2.2315953
92	0xc15b8f26	-13.722448
93	0xbfc58911	-1.5432454
94	0xc0f64e66	-7.69707
95	0xc069e49c	-3.6545782
96	0xbf620f88	-0.8830495
97	0xc02d29ad	-2.7056687
98	0x405a0856	3.4067588
99	0xc08dba8e	-4.429023
100	0xc035c884	-2.8403635
101	0xc108582b	-8.521525
102	0xc0189678	-2.384184
103	0xc071b43b	-3.7766254
104	0xc15c1452	-13.754961
105	0xc0b36188	-5.6056557
106	0xc14cc928	-12.79911
107	0xc0e5bf4f	-7.179603
108	0xc11241a7	-9.141028
109	0xc068ff81	-3.6405947
110	0xc17416b6	-15.255545
111	0xbf8aa7f5	-1.0832506
112	0xc10b4b66	-8.705908
113	0xc095e562	-4.684251
114	0xc0604984	-3.504487
115	0xc07370d8	-3.8037624
116	0xc0f5a2b9	-7.6761136
117	0xc161a1ad	-14.101972
118	0xc00001ad	-2.0001023
119	0xc1192474	-9.5714
120	0xbf66ca15	-0.901521
121	0xbea3ba84	-0.31978238
122	0x3fe27d6f	1.7694529
123	0xc03ac773	-2.9184234
124	0xc080a266	-4.019824
125	0x404eb8e6	3.2300353
126	0xbea5f956	-0.3241679
127	0xbe1d246b	-0.15345924
128	0xc0476cee	-3.1160235
129	0xc0373323	-2.8624961
130	0xc012419c	-2.2852545
131	0xc094db93	-4.6518035
132	0xc0979630	-4.7370834
133	0xc0ebdceb	-7.3707175
134	0xc00f7f54	-2.2421465
135	0xc05751f8	-3.364378
136	0xc130428b	-11.016246
137	0xc0455a86	-3.08365
138	0xc09f08de	-4.9698324
139	0xc12e1d2f	-10.882125
140	0xc0567af0	-3.3512535
141	0xc038e896	-2.889196
142	0xc16625e3	-14.38425
143	0xbfb0d16a	-1.3813908
144	0xc0ceb280	-6.4592896
145	0xc16702e8	-14.43821
146	0xbfb895f7	-1.4420766
147	0x3f7e2976	0.99282014
148	0xc17bec0e	-15.745131
149	0xc0c19123	-6.048967
150	0xc0249a08	-2.5719013
151	0xc062bbd9	-3.5427153
152	0xc16183f3	-14.094714
153	0xc06e0ea0	-3.7196426
154	0xc09ed12e	-4.9630346
155	0xbfcd9d37	-1.6063603
156	0xbfcdfc33	-1.609259
157	0xc055e999	-3.3423827
158	0xc020ba73	-2.51138
159	0xc11c4cdc	-9.7687645
160	0xc098e006	-4.7773466
161	0xc097f268	-4.7483406
162	0xc037a69e	-2.8695445
163	0xc160815b	-14.031581
164	0xc01d0786	-2.4535842
165	0xbf3191e1	-0.6936322
166	0xc074bf1c	-3.8241644
167	0xc07bea70	-3.936184
168	0xc03bc2c2	-2.933762
169	0xbf964c60	-1.1742058
170	0xc003a319	-2.0568297
171	0xbef6657e	-0.48124307
172	0xc0ee9ff5	-7.457026
173	0xc08f125e	-4.470992
174	0xc1178738	-9.470512
175	0xbedc138b	-0.4298366
176	0xc112c49d	-9.173001
177	0xc0046b95	-2.0690663
178	0xbf2b223d	-0.6684912
179	0xc0d4278d	-6.629828
180	0xc04adef3	-3.1698577
181	0xc0ae0ad4	-5.438822
182	0xc0bf95bc	-5.987028
183	0xc02c07ca	-2.6879754
184	0xc05636e4	-3.3471003
185	0x3fc237b1	1.5173246
186	0xc16ffca4	-14.99918
187	0xc05f4f85	-3.4892285
188	0xc080ec6d	-4.0288606
189	0xc0c76ded	-6.2321687
190	0xc10f0b25	-8.940221
191	0xc15d497e	-13.830442
192	0xbffd5704	-1.979218
193	0xbf006fca	-0.50170577
194	0xc112d016	-9.175802
195	0xbf847ff4	-1.0351548
196	0xc0d36b7c	-6.6068707
197	0xc112b7b5	-9.16985
198	0xc1129650	-9.161697
199	0xc01b1475	-2.4231236
200	0xc0333316	-2.799993
201	0xc07c1520	-3.9387894
202	0xbc91679e	-0.017749604
203	0xc0e50f8f	-7.1581492
204	0xc046c410	-3.1057167
205	0xc095c4ad	-4.6802583
206	0xc0e3b0c0	-7.115326
207	0xc009c08d	-2.1523774
208	0xc05ec702	-3.4808965
209	0xc1608c3f	-14.03424
210	0xc01d8461	-2.4612048
211	0xbf6c8b3b	-0.9239995
212	0xbfcc4f27	-1.5961655
213	0xc160015f	-14.000335
214	0xc0e3a0d7	-7.113384
215	0xc08ea80c	-4.4580135
216	0xc107594f	-8.459304
217	0xc0824993	-4.071481
218	0xbff0b343	-1.8804706
219	0xbfef32ce	-1.8687379
220	0xbf862ed7	-1.0483044
221	0xc067c944	-3.6216593
222	0xbf390c53	-0.7228443
223	0xc0530ac3	-3.2975318
224	0xc039d975	-2.9038975
225	0xc14e7938	-12.904594
226	0xc095cad4	-4.6810093
227	0xbf889a27	-1.0672044
228	0xc09c728e	-4.8889837
229	0xc146467d	-12.392209
230	0xc17727de	-15.447233
231	0xbf1a784b	-0.603398
232	0xc02046fa	-2.504332
233	0xc0ee88da	-7.4542055
234	0xbf88f90d	-1.0701004
235	0xc08cff5f	-4.406173
236	0xbf91ac26	-1.138066
237	0xbffb3800	-1.9626465
238	0xbecd2d7d	-0.40073767
239	0xc1334bc0	-11.205994
240	0xc091440a	-4.5395555
241	0xbe835b15	-0.25655428
242	0xc0191743	-2.3920448
243	0xbfe3cdb1	-1.7797147
244	0xc0024d28	-2.0359592
245	0xc06aa606	-3.6663833
246	0xbfdb9639	-1.7155219
247	0xc074c2ca	-3.824389
248	0xc15d78be	-13.841978
249	0xc0bf5ba1	-5.979935
250	0xc0ed3526	-7.412738
251	0xc03e934d	-2.9777405
252	0xc054d151	-3.3252757
253	0xc111d94b	-9.11555
254	0xc0a48ec4	-5.1424274
255	0x40e0ed2a	7.0289507

i2o.bias f4 [111]
0	0xbf5ce87a	-0.8629223
1	0xc11a73ec	-9.653301
2	0xc1276fc3	-10.464786
3	0xc13dd58b	-11.8646345
4	0xc11d252e	-9.821577
5	0xbd3a7c08	-0.04552844
6	0x3ece307e	0.40271372
7	0xc120a710	-10.040787
8	0xbf9eefb9	-1.2416908
9	0xbf9592cf	-1.1685427
10	0x3ee1c4ee	0.44095558
11	0x3eaca2c6	0.33717936
12	0x3f06db3a	0.52678263
13	0xbf8173c0	-1.0113449
14	0x3f0cdd1d	0.5502489
15	0xc134f8c6	-11.310736
16	0xc12fc9e0	-10.986786
17	0xc132301e	-11.136747
18	0x3e6cb9f1	0.23117806
19	0xbf820230	-1.0156918
20	0x3eaeec26	0.34164542
21	0x3f1ae883	0.60511035
22	0x3ea65d78	0.32493186
23	0xc12a0771	-10.626817
24	0xc14b2473	-12.696399
25	0xbefacaa8	-0.4898274
26	0xc147a1d4	-12.477009
27	0xc10675ce	-8.403761
28	0xbf6d2065	-0.92627555
29	0xc029d163	-2.653405
30	0xbf55200d	-0.8325203
31	0xc11f9f23	-9.976352
32	0xc131cd5d	-11.1126375
33	0xc128e724	-10.556431
34	0xbf02fc39	-0.5116611
35	0xbf9712ae	-1.1802576
36	0xbe8d6f6e	-0.27624077
37	0x3f63050c	0.88679576
38	0xbfb327b3	-1.399649
39	0xc152df08	-13.179451
40	0xbdc4b1eb	-0.09604248
41	0xbf8be3e6	-1.0928924
42	0xc11a9e98	-9.663719
43	0xbe9058d7	-0.2819278
44	0xc1357c1f	-11.342803
45	0xbedd6b76	-0.4324605
46	0xbb92b942	-0.004477651
47	0xc12911f7	-10.566886
48	0xc142ba5b	-12.170497
49	0xbf6c50b7	-0.9231066
50	0x3e0a5883	0.13510327
51	0xbef9aac8	-0.48763108
52	0x3f11b586	0.5691761
53	0xc139d1a1	-11.613679
54	0x3d4be896	0.049782358
55	0xbf51489c	-0.8175142
56	0xbde02daa	-0.1094621
57	0x3e425c78	0.18980587
58	0x3e2bb78e	0.1676924
59	0xbe7e1c06	-0.24815378
60	0xc11f717e	-9.965208
61	0xc1213b90	-10.077042
62	0xbe6e6849	-0.23281969
63	0xbfc30042	-1.5234454
64	0xc119d0cf	-9.613479
65	0xbfbdfb59	-1.484233
66	0xbf85fca4	-1.0467725
67	0x3e82222c	0.25416696
68	0xc1308bb8	-11.034111
69	0x3ec09889	0.37616375
70	0xbdb22d4d	-0.08700047
71	0xbd5e5766	-0.05428257
72	0xc13cfe4f	-11.812087
73	0x3f03af1f	0.5143909
74	0xc1355398	-11.332909
75	0xbf90483d	-1.1272045
76	0xbe8e87e4	-0.2783805
77	0x3b8a932d	0.0042289705
78	0xbdd05787	-0.101729445
79	0xc131d686	-11.114874
80	0xc1135622	-9.2085285
81	0x40bca18c	5.89472
82	0xba87a9ba	-0.0010350265
83	0xbfaa7635	-1.3317324
84	0x3f464942	0.7745553
85	0xbfc60736	-1.5470951
86	0xbeec5058	-0.46155047
87	0x3f676802	0.9039308
88	0xc1218b00	-10.096436
89	0x3e928b7a	0.28622037
90	0x3e8a139f	0.26968095
91	0x3dcf45f3	0.10120764
92	0x3f65149c	0.8948457
93	0xc1189fee	-9.539045
94	0x3ec5e366	0.38650054
95	0xc12a22b2	-10.633471
96	0x40b97dce	5.796607
97	0xbe037ba8	-0.1284014
98	0x3ce4ad8c	0.027914785
99	0xc13f02c0	-11.938171
100	0xc183ff2d	-16.499598
101	0xc12338b9	-10.201348
102	0xc157b129	-13.480752
103	0xc1827348	-16.30629
104	0x3eb8caa4	0.36092103
105	0xc157cd72	-13.487658
106	0xc165f889	-14.373178
107	0xc18b407d	-17.406488
108	0x3f0626d6	0.5240301
109	0xc10fe60e	-8.993666
110	0xc1433d9c	-12.202541
